models/TPN/1000_G_decoder.ckpt (torch_old, 828457 bytes, 17 tensors)

attn.attn_e.weight f4 [150, 150]
0	0x3dc83b9f	0.09776997
1	0x3dd42f05	0.10360531
2	0xbc7950e0	-0.015217036
3	0x3d087ac9	0.033320222
4	0xbdb6c288	-0.08923823
5	0xbd29d28f	-0.04146057
6	0xbe1bed06	-0.15227136
7	0xbd292809	-0.041297946
8	0xbdc9f276	-0.09860699
9	0xbd09501f	-0.033523675
10	0x3dbcbbe2	0.09215523
11	0x3d930882	0.07179357
12	0xbe78834e	-0.24268839
13	0x3c0e4a93	0.008684772
14	0x3e190678	0.14943874
15	0xbbe00948	-0.006837044
16	0x3d472f2c	0.04862897
17	0xbd402cba	-0.046917655
18	0xbcb8612d	-0.022507275
19	0x3e193d11	0.14964701
20	0xbce07f89	-0.027404564
21	0xbdbfc06c	-0.093628734
22	0xbdadef25	-0.08492879
23	0xbdfa2499	-0.12214012
24	0x3e177254	0.14789706
25	0xbd719bd6	-0.058986507
26	0x3d735652	0.059408493
27	0xbd9ad437	-0.07560008
28	0xbce05ec8	-0.027388945
29	0xbe0a5b5b	-0.13511412
30	0x3db11176	0.086459085
31	0x3d607249	0.05479649
32	0x3e725c58	0.23668039
33	0x3d50e439	0.0509989
34	0x3c93bb60	0.018033683
35	0x3eb80101	0.35938266
36	0xbd969687	-0.073529296
37	0xbe244701	-0.16042711
38	0xbd0fba9c	-0.035090074
39	0xbe06afcc	-0.13152999
40	0xbda0c9e0	-0.078510046
41	0xbd94ad9d	-0.072596766
42	0x3e2be441	0.1678629
43	0xbdd5611d	-0.104189135
44	0x3dff73c1	0.1247325
45	0xbd72224d	-0.059114743
46	0x3c9fc00f	0.01950076
47	0xbdb37e39	-0.087643094
48	0x3e25730d	0.1615717
49	0xbdb99657	-0.09061878
50	0xbe17b77a	-0.14816085
51	0xbdbdfb14	-0.09276405
52	0xbe5b250d	-0.21400853
53	0xbdda7475	-0.10666744
54	0x3bb8b6b3	0.005637014
55	0xbe15b74d	-0.14620705
56	0x3ea34ef1	0.31896165
57	0x3c52198c	0.012823474
58	0xbe1fb1fb	-0.15595238
59	0x3d757c11	0.059932772
60	0xbd18adb1	-0.03727502
61	0xbe201a7a	-0.156351
62	0x3bb7cebb	0.005609361
63	0xbe421248	-0.18952286
64	0xbe4f6993	-0.20255117
65	0xbe14788c	-0.1449911
66	0xbe1850f7	-0.14874636
67	0xbcaaa542	-0.020830754
68	0xbe5750e7	-0.21026956
69	0x3def0525	0.11670903
70	0xbde2d03b	-0.11074873
71	0x3cbfd54d	0.02341714
72	0xbdcad394	-0.099036366
73	0x3cf38b26	0.029729437
74	0xbd95f14c	-0.07321414
75	0xbc79db19	-0.015249991
76	0xbe6dd665	-0.23226316
77	0xbd9822bd	-0.07428501
78	0x3c5f6d1c	0.013636854
79	0xbda8ade0	-0.08236289
80	0xbc48e17a	-0.012260789
81	0x3d0fd065	0.03511085
82	0xbb27ff71	-0.0025634433
83	0x3cee3bcd	0.02908125
84	0xbd8b49d7	-0.06801193
85	0xbc6e0b80	-0.014529109
86	0x3d615954	0.05501683
87	0x3e2ff309	0.17182554
88	0x3e633634	0.22188646
89	0x3e4261b5	0.18982585
90	0xbd3e7880	-0.046501637
91	0xbe1a8714	-0.1509059
92	0xbdfafb4e	-0.12254964
93	0xbda8a096	-0.08233754
94	0xbdfb0fc4	-0.122588664
95	0xbd3f6f5d	-0.046737064
96	0x3d7dac34	0.061931804
97	0xbdc261a3	-0.09491279
98	0xbd554433	-0.052066993
99	0x3c353c27	0.011061705
100	0x3d247fc4	0.04016091
101	0xbcb6e233	-0.022324657
102	0xba93cef4	-0.0011276887
103	0xbe08ea88	-0.13370717
104	0x3d4d43ce	0.05011349
105	0x3d3ad62f	0.045614418
106	0x3df8a67f	0.121411316
107	0xbe598d4b	-0.21245305
108	0xbc3b4f4d	-0.011432481
109	0x3cbdfe17	0.023192449
110	0x3ded3c13	0.11583724
111	0xbdcd5293	-0.100255154
112	0xbd1b2087	-0.037872817
113	0x3d476945	0.048684377
114	0xbe90b33c	-0.28261745
115	0x3dc074e6	0.093972966
116	0xbde45abd	-0.111501195
117	0xbdd3f77b	-0.103499375
118	0xbd88216b	-0.06646999
119	0xbe0c92fd	-0.13727947
120	0x3d86bf0b	0.06579407
121	0xbc5d11d0	-0.013493016
122	0xbcd59e58	-0.02607648
123	0xbd660e9e	-0.056166284
124	0xbdb9d4fa	-0.09073825
125	0xbe3011e0	-0.17194319
126	0xbc1f47eb	-0.009721736
127	0xbd3a8ae6	-0.04554262
128	0xbc7d7f2c	-0.015472215
129	0xbe30f96b	-0.17282645
130	0x3dc8d195	0.098055996
131	0xbe09fd84	-0.13475615
132	0xbce566dd	-0.02800315
133	0xbd8f6d7c	-0.07003304
134	0xbd363784	-0.044486538
135	0x3b54ef95	0.0032491435
136	0x3d36c80b	0.04462437
137	0x3dc31312	0.09525122
138	0x3e447856	0.1918653
139	0x3e098bdd	0.1343226
140	0x3d022441	0.031772856
141	0xbd9e4762	-0.07728459
142	0x3daf63f0	0.085639834
143	0xbd5065a0	-0.050878167
144	0x3dc31d6c	0.09527096
145	0x3cdf7bea	0.027280767
146	0x3e649ff7	0.22326647
147	0xbd03af1e	-0.032149427
148	0xbd1cbf4c	-0.038268372
149	0xbd2e9880	-0.042625904
150	0xbd263560	-0.040578246
151	0xbdeb07bc	-0.114760846
152	0xbe0931a5	-0.13397844
153	0x3da17e04	0.07885364
154	0x3d146cca	0.03623656
155	0xbdcdac87	-0.100426726
156	0xbdb24c19	-0.08705921
157	0x3db41813	0.08793654
158	0xbda1a51f	-0.078928225
159	0x3d03e4d9	0.032200668
160	0x3d87f710	0.0663892
161	0xbe0a1d00	-0.13487625
162	0xbdc8b6e1	-0.098005064
163	0x3e2fffb4	0.17187387
164	0xbdbd0a9b	-0.092305385
165	0x3c5ed373	0.013600218
166	0x3b0cafb8	0.0021467041
167	0x3c226ab3	0.009913134
168	0x3cc5e1a9	0.024155455
169	0xbd080ce0	-0.033215404
170	0xbd9515a4	-0.07279518
171	0xbe36b8e9	-0.17843975
172	0x3d913ee2	0.07092072
173	0x3e54eaae	0.20792648
174	0xbc87f27f	-0.016595123
175	0x3c04cf01	0.008105994
176	0xbe2c978b	-0.16854684
177	0xbc808606	-0.015688907
178	0x3c887d3b	0.016661277
179	0xbe28ebb8	-0.1649617
180	0xbd934048	-0.07189995
181	0xbd87b5b2	-0.066264525
182	0x3e072629	0.1319815
183	0xbd505207	-0.050859477
184	0x3c6850d2	0.014179425
185	0xbdd4790b	-0.103746496
186	0xbdebb722	-0.11509539
187	0x3d24370d	0.040091563
188	0xbdf195d1	-0.11796153
189	0x3dce36c0	0.100690365
190	0xbb2b4599	-0.0026134013
191	0xbc26e081	-0.010185362
192	0xbdbf27e9	-0.09333784
193	0x3db8e60d	0.09028254
194	0xbd2b5347	-0.041827466
195	0x3dd467f4	0.1037139
196	0xbe3cab5b	-0.18424742
197	0xbdf97252	-0.12180008
198	0xbce8d612	-0.02842239
199	0xbd2c9daa	-0.042142548
200	0xbe89e78c	-0.2693447
201	0xbd787464	-0.060657874
202	0xbe3360d6	-0.17517409
203	0x3d237359	0.039904926
204	0xbde4ff5a	-0.11181517
205	0xbe243588	-0.16036046
206	0x3dd07af0	0.101796985
207	0xbcff31db	-0.031151703
208	0x3dad423e	0.084599
209	0xbcb0c243	-0.021577006
210	0xbe0087cf	-0.12551807
211	0x3cf82aca	0.03029384
212	0xbdd4f2ee	-0.10397898
213	0x3e57f17d	0.21088214
214	0x3ae5f5a4	0.001754452
215	0x3da7ce64	0.08193663
216	0xbdd661b4	-0.10467854
217	0x3aa0adab	0.0012258788
218	0x3d3cf57e	0.046132557
219	0x3d789cce	0.060696416
220	0xbb9b0478	-0.0047307573
221	0xbdca07c1	-0.0986476
222	0x3d605a7c	0.054773793
223	0x3da308f6	0.079606935
224	0xbcb95042	-0.022621278
225	0x3d5f46ef	0.054511007
226	0x3d5f1738	0.054465503
227	0xbe48480a	-0.1955873
228	0xbd9344c1	-0.07190848
229	0xbe117205	-0.14203651
230	0xbd228b48	-0.03968361
231	0x3ce98ec7	0.028510464
232	0x3c8b2448	0.016985074
233	0xbab91ae0	-0.0014122389
234	0x3db484fa	0.08814426
235	0x3aafe540	0.0013419762
236	0xba098041	-0.00052452466
237	0x3d7c0175	0.061524827
238	0x3dabf7b6	0.083968565
239	0x3d02bbe8	0.031917483
240	0x3dcae629	0.09907181
241	0xbcee9748	-0.02912487
242	0x3d89d821	0.067306764
243	0xbda1a9b1	-0.07893694
244	0x3c323517	0.010876915
245	0x3db3c00d	0.08776865
246	0xbcd91a03	-0.026501661
247	0xbd9d6699	-0.076855846
248	0xb8d27a82	-0.00010036399
249	0x3da4570b	0.08024415
250	0x3c02c780	0.007982135
251	0xbd8961e5	-0.06708125
252	0x3d500e4e	0.050794892
253	0xbba2fc84	-0.00497395
254	0xbdeab121	-0.11459566
255	0xbe41923a	-0.18903437

attn.attn_e.bias f4 [150]
0	0xbe0ecc97	-0.13945232
1	0x3e442670	0.19155288
2	0xbd727cbf	-0.059201
3	0x3e081e9f	0.13292931
4	0x3d72870c	0.059210822
5	0x3d6e12e6	0.05812349
6	0x3e102428	0.14076293
7	0xbdb970c1	-0.09054709
8	0xbdacc8d0	-0.084367394
9	0xbca514f4	-0.020151593
10	0x3d889d91	0.066706784
11	0x3d634474	0.055485204
12	0x3d63a143	0.055573713
13	0x3e393beb	0.18089263
14	0xbd8210f8	-0.06350893
15	0x3d75c318	0.06000051
16	0x3dc65bdd	0.0968549
17	0x3e437939	0.19089212
18	0x3dd3549e	0.10318874
19	0x3e03aa5f	0.1285796
20	0xbe584edc	-0.21123832
21	0x3d6be372	0.057589956
22	0xbcbaf35d	-0.022821123
23	0xbe197bd5	-0.14988644
24	0xbda00ab5	-0.07814542
25	0x3e3e0e66	0.1856018
26	0xbdbac6db	-0.0911996
27	0x3d6fffa4	0.058593407
28	0x3e24e02e	0.16101143
29	0xbd690cd8	-0.056897014
30	0xbe2c573c	-0.16830152
31	0xbd567374	-0.0523562
32	0xbe235214	-0.15949279
33	0xbdcf4ba1	-0.10121847
34	0x3e04d69b	0.1297249
35	0x3e29ad74	0.16570073
36	0x3e0ec067	0.13940583
37	0x3e34da26	0.17661342
38	0x3d9d3438	0.076759756
39	0xbd75156b	-0.05983488
40	0xbe00123a	-0.12506953
41	0x3dac36e3	0.08408906
42	0x3d729128	0.059220463
43	0x3d70a0c7	0.05874708
44	0xbe083fa7	-0.13305531
45	0x3e334150	0.17505383
46	0x3df37aa6	0.11888628
47	0x3d6ac9c7	0.057321336
48	0xbd638c98	-0.055554003
49	0xbd5e6e4f	-0.054304417
50	0x3d318c3e	0.043346636
51	0x3d8af0d1	0.06784213
52	0x3e211c72	0.15733507
53	0x3d5e26a1	0.05423606
54	0x3e48dc6e	0.19615337
55	0xbd65db50	-0.056117356
56	0xbe206faa	-0.15667596
57	0xbdcef078	-0.101044595
58	0x3db59533	0.08866348
59	0xbdefff4b	-0.11718615
60	0x3e46d585	0.19417389
61	0x3b987a1c	0.0046532284
62	0x3e18fbe7	0.14939843
63	0xbd74a9bd	-0.059732188
64	0xbd661086	-0.0561681
65	0xbe3718c9	-0.17880549
66	0xbe3ce73a	-0.18447581
67	0x3d656a21	0.056009416
68	0x3d6a2f0b	0.05717377
69	0x3dcb477b	0.09925743
70	0x3d797a26	0.060907505
71	0x3e0cdef1	0.1375692
72	0xbe2156c6	-0.15755758
73	0x3d8958e4	0.06706408
74	0x3e1ea5f3	0.15492992
75	0xbd685d65	-0.056729693
76	0x3e6feb85	0.23429687
77	0xbe45b15f	-0.19305943
78	0x3d3e5f4c	0.0464776
79	0x3b85e0aa	0.00408562
80	0xbd021b4d	-0.031764317
81	0x3e1b8f83	0.15191464
82	0x3d7ebd20	0.062192082
83	0xbe4e1f32	-0.20129088
84	0x3e49ef2f	0.19720148
85	0x3e2c212f	0.16809534
86	0x3d69834e	0.057009988
87	0xbe099e7a	-0.1343936
88	0xbdbd9414	-0.09256759
89	0xbd684e0d	-0.05671506
90	0xbe0ee3f0	-0.13954139
91	0x3d7838f4	0.06060119
92	0xbd754a89	-0.059885535
93	0x3ddc70a4	0.10763672
94	0x3d8be2fa	0.06830402
95	0xbd2efd97	-0.04272231
96	0xbe31fd0d	-0.17381687
97	0x3decc0ac	0.11560187
98	0xbd088cd6	-0.033337437
99	0xbd8e3884	-0.06944373
100	0x3e2550b7	0.16144072
101	0x3d69f039	0.05711386
102	0x3d6f819f	0.058473226
103	0xbe2ae594	-0.1668914
104	0x3e1a0054	0.15039188
105	0xbe0bc017	-0.13647495
106	0x3e241d9e	0.16026923
107	0x3d639ad0	0.055567563
108	0xbdad61be	-0.084659085
109	0x3e24afe7	0.16082726
110	0x3dc09de8	0.09405118
111	0xbe1218c1	-0.14267255
112	0xbe1aabb5	-0.15104564
113	0xbe094565	-0.13405378
114	0x3d66fe63	0.056394946
115	0x3d709206	0.05873301
116	0x3e13de0c	0.14440173
117	0xbe33c6a1	-0.1755624
118	0x3d85aa51	0.06526626
119	0x3e2c52a7	0.16828404
120	0x3d815683	0.06315329
121	0x3d50ef4e	0.05100947
122	0x3e15299b	0.14566652
123	0xbe289c85	-0.16465957
124	0x3d735519	0.059407327
125	0xbdb64815	-0.08900467
126	0x3d596901	0.053078655
127	0x3cabcc28	0.020971373
128	0xbd693365	-0.05693378
129	0x3dcdd2ef	0.10049998
130	0xbe2b8ebd	-0.16753669
131	0x3dc0d6a4	0.094159395
132	0x3df69548	0.12040192
133	0x3e2d659a	0.16933289
134	0xbdb21977	-0.08696263
135	0x3d5f2201	0.054475788
136	0xbe3a0b63	-0.18168406
137	0xbdd3945b	-0.10331031
138	0xbd69ba2e	-0.05706232
139	0xbd6dbbe1	-0.058040503
140	0xbe18d3c1	-0.14924528
141	0xbddfea7a	-0.10933395
142	0xbd2a020d	-0.041505862
143	0xbd6ca00c	-0.05776982
144	0xbe029ab3	-0.12754326
145	0xbd4eef0e	-0.05052095
146	0x3e4f1963	0.20224528
147	0xbd6b61cc	-0.057466313
148	0x3d6d2064	0.05789222
149	0xbe22d674	-0.1590212

attn.attn_h.weight f4 [150, 150]
0	0xbde16157	-0.11004894
1	0x3de51225	0.111851014
2	0xbe6a04f5	-0.22853453
3	0x3f051813	0.5198986
4	0xbe40dc85	-0.18834122
5	0xbdc6f4dd	-0.09714673
6	0x3f218c29	0.6310449
7	0xbb142d7e	-0.0022610123
8	0x3f1823e3	0.5942976
9	0xbdc1d252	-0.094639435
10	0x3c95ac84	0.018270738
11	0x3d017968	0.031609923
12	0xbe92ccef	-0.28671977
13	0x3e988caf	0.29794833
14	0xbceabd15	-0.028654614
15	0x3eaa67ea	0.33282405
16	0x3eb1c5dc	0.34721267
17	0x3e0b9ef8	0.1363486
18	0x3e11ba54	0.14231235
19	0x3c403eea	0.01173375
20	0x3e858539	0.26078203
21	0x3b89c9bd	0.0042049573
22	0x3e127a5f	0.14304493
23	0xbd0f4122	-0.034974225
24	0x3d2e7eb9	0.04260132
25	0x3e88ec7d	0.26742926
26	0xbe39522e	-0.18097755
27	0x3e8ac49b	0.27103123
28	0xbdea1a95	-0.11430851
29	0xbf443ace	-0.7665223
30	0x3dc0a37c	0.09406182
31	0xbe345e4f	-0.17614101
32	0x3d64b72f	0.05583876
33	0xbe9e45e7	-0.30912706
34	0x3e469c8d	0.19395657
35	0x3da6545a	0.081215575
36	0x3e22547b	0.15852539
37	0x3e71385c	0.23556656
38	0x3ddb02e8	0.10693914
39	0xbd579903	-0.052636158
40	0xbe9866b5	-0.2976586
41	0x3ecbe7a0	0.39825153
42	0x3ed5c9e2	0.41755587
43	0xbe4b91d4	-0.19879848
44	0xbeacf9ce	-0.33784336
45	0x3d2d9bc5	0.04238488
46	0x3de3542e	0.111000404
47	0x3e06721d	0.13129468
48	0xbf388372	-0.7207557
49	0x3e9a8a7e	0.30183786
50	0x3e055100	0.1301918
51	0xbe28c8d3	-0.16482858
52	0x3b133d25	0.0022466865
53	0x3d14770f	0.036246356
54	0xbe26cac6	-0.1628829
55	0xbf247951	-0.64247614
56	0xbea6772c	-0.32512796
57	0xbeaf77cc	-0.34271085
58	0x3e7a646c	0.2445237
59	0xbdf04254	-0.11731401
60	0x3e5827e2	0.21108964
61	0xbdfd4d35	-0.12368242
62	0x3db4a605	0.08820728
63	0xbca70a14	-0.020390548
64	0x3e265816	0.1624454
65	0x3e61c2de	0.22046992
66	0xbcaa0cf4	-0.02075813
67	0xbe30fb17	-0.17283283
68	0xb9ee8448	-0.00045493455
69	0x3e4ccfdb	0.20001166
70	0xbe7d323c	-0.24726194
71	0x3e3a20cf	0.18176578
72	0xbd97f6be	-0.07420109
73	0xbeb6c131	-0.35694268
74	0x3d8aae1e	0.067714915
75	0x3e4079eb	0.18796508
76	0x3d5feea0	0.05467093
77	0x3efea1e8	0.497329
78	0xbdc7b432	-0.097511664
79	0xbd9a23e5	-0.075263776
80	0x3da4f9c9	0.08055455
81	0xbd4a082e	-0.049324207
82	0xbf2bb4fd	-0.6707304
83	0xbb620704	-0.0034489045
84	0xbd336256	-0.043794952
85	0x3dee2c76	0.11629574
86	0x3dbfb29b	0.09360238
87	0x3e0edf09	0.13952269
88	0x3dd9e7d6	0.10639922
89	0xbc881501	-0.016611578
90	0xbebced59	-0.36899832
91	0xbf1bc3a2	-0.60845387
92	0xbe092033	-0.1339119
93	0xbe69cbe9	-0.22831692
94	0xbe892556	-0.26786298
95	0x3c8bae66	0.017050933
96	0x3c9b2316	0.018937629
97	0xbe8df76a	-0.27727824
98	0xbe57ae3e	-0.21062562
99	0x3ed63f66	0.41845244
100	0x3db255b8	0.08707756
101	0xbe2606c7	-0.16213523
102	0xbbdb6893	-0.006695816
103	0xbe3caf7e	-0.1842632
104	0x3d82a0ce	0.06378327
105	0xbead3732	-0.33831173
106	0x3ea43574	0.32072031
107	0xbe8d82ff	-0.27639005
108	0xbe991b0b	-0.29903445
109	0xbdaa38c2	-0.08311607
110	0xbce54d04	-0.027990825
111	0x3cdc57a8	0.026897267
112	0xbd239fc5	-0.03994729
113	0x3e0fcce6	0.14043006
114	0xbe7f6646	-0.24941358
115	0xbcc3d8af	-0.023907034
116	0xbdb257f3	-0.08708181
117	0x3e90e86e	0.2830233
118	0xbe2cba2c	-0.16867894
119	0xbd3bbfc9	-0.045837197
120	0x3db2198c	0.08696279
121	0xbef82004	-0.48461926
122	0xbe261362	-0.16218331
123	0xbe3b1de6	-0.18273124
124	0x3e86f8e8	0.26361775
125	0xbda23cd0	-0.07921755
126	0xbd8c0a59	-0.06837911
127	0xbe3d5ebc	-0.1849317
128	0xbc895999	-0.016766356
129	0xbec92ec2	-0.39293486
130	0xbda8c7df	-0.082412474
131	0xbd1dc408	-0.038517028
132	0x3dce96d5	0.10087363
133	0x3de416ad	0.111371376
134	0xbe440525	-0.19142587
135	0x3c70ceb9	0.014697724
136	0xbce73706	-0.02822448
137	0x3d90be1c	0.070675105
138	0x3eb7908a	0.35852462
139	0x3e4ae3fb	0.1981353
140	0x3dfc7987	0.12327867
141	0x3e214ae9	0.15751232
142	0xbceede2d	-0.029158676
143	0x3e971987	0.29511663
144	0xbc00ccee	-0.007861359
145	0xbea90a26	-0.33015555
146	0x3eac86da	0.33696634
147	0xbd394a0b	-0.04523663
148	0xbde0fc9c	-0.109856814
149	0x3ee6c55e	0.45072454
150	0x3e46d9e0	0.1941905
151	0xbe6739c9	-0.22580637
152	0x3e2e3c9a	0.17015305
153	0xbf22d78e	-0.6361016
154	0x3e72a5ce	0.23696062
155	0x3e3848f3	0.17996578
156	0x3ddaef54	0.106901795
157	0xbe8e9b5b	-0.27852902
158	0xbec98bae	-0.3936438
159	0x3dcc39fd	0.09971998
160	0xbea3be22	-0.31980997
161	0x3eb1baf7	0.34712955
162	0x3e3fd41f	0.18733262
163	0x3dccd2d2	0.10001148
164	0x3d758b01	0.059947018
165	0xbf205e84	-0.6264422
166	0x3e1c29cb	0.15250318
167	0xbdcbeaef	-0.099569194
168	0x3b771506	0.003770174
169	0xbf2402c6	-0.6406673
170	0x3dbe8168	0.09302026
171	0xbd596f9a	-0.053084947
172	0xbe29a430	-0.16566539
173	0x3e02c554	0.12770587
174	0x3d14301f	0.036178704
175	0x3efeb85e	0.49750036
176	0x3ded2770	0.11579788
177	0x3d0765bf	0.033056017
178	0xbd7f60b6	-0.06234809
179	0x3cd19c0c	0.025587104
180	0xbe6faca8	-0.23405707
181	0x3e161c65	0.14659269
182	0x3e7d7d79	0.24754895
183	0xbeddb470	-0.43301725
184	0xbdde907c	-0.10867402
185	0x3e504e6f	0.2034242
186	0xbddd56f0	-0.10807598
187	0x3d4b882e	0.049690418
188	0xbe8aa6e6	-0.27080458
189	0xbdc04668	-0.09388429
190	0x3e19e550	0.15028882
191	0xbd5f15b2	-0.05446405
192	0xbe283b45	-0.1642886
193	0xbe4a8bbe	-0.1977987
194	0x3dde60ec	0.1085833
195	0x3f455100	0.7707672
196	0xbe3e0a8e	-0.18558714
197	0xbe74ebb4	-0.23918039
198	0x3e4a1283	0.19733624
199	0xbf12eeef	-0.57395834
200	0xbe4700da	-0.19433919
201	0x3e3791c7	0.17926703
202	0xbd97a323	-0.07404163
203	0xbe9175eb	-0.28410277
204	0xbee4fd02	-0.4472428
205	0xbf1d7f5e	-0.6152247
206	0x3da0bfd7	0.078490905
207	0x3d07e2f6	0.03317543
208	0xbe0248d6	-0.12723097
209	0x3ddb2fc3	0.10702469
210	0xbf1c6f17	-0.6110701
211	0xbe185203	-0.14875035
212	0xbe0ea289	-0.1392919
213	0xbea28fa9	-0.3175023
214	0x3ea17713	0.3153616
215	0xbd2aa7f6	-0.041664086
216	0x3e87603e	0.26440614
217	0x3ecaa702	0.39580542
218	0xbd435aa7	-0.047693875
219	0xbe53be68	-0.20678103
220	0x3e8a5491	0.27017644
221	0xbeb3d312	-0.3512197
222	0xbdf0e08b	-0.11761578
223	0x3e63181c	0.22177166
224	0xbdc50ad9	-0.0962121
225	0xbec5308d	-0.38513604
226	0x3e016f1a	0.12640038
227	0xbd699498	-0.057026476
228	0x3e3888ce	0.18020937
229	0x3d47b4e0	0.04875648
230	0x3e5fcb0a	0.21854797
231	0xbd295d37	-0.041348662
232	0xbf20adb2	-0.6276504
233	0xbdffebf1	-0.12496174
234	0x3be84205	0.0070879483
235	0xbf15f119	-0.5857101
236	0xbe0d5790	-0.13802934
237	0x3e139660	0.14412832
238	0xbd4ff2a2	-0.050768502
239	0x3ea1f023	0.31628522
240	0x3dfa0bfb	0.12209316
241	0xbd9513f5	-0.07279197
242	0x3e8b391b	0.27192006
243	0xbdfbe327	-0.12299185
244	0x3f03658a	0.5132681
245	0xbe0e7d93	-0.1391509
246	0xbe3804c2	-0.17970565
247	0xbe774eb6	-0.2415112
248	0x3e7eb41f	0.24873398
249	0xbdae6410	-0.08515179
250	0xbe40ea3e	-0.18839356
251	0x3eab573a	0.33464986
252	0x3d876515	0.06611077
253	0x3db1c4db	0.08680125
254	0xbd3d1953	-0.04616673
255	0xbe1a67c5	-0.15078647

attn.attn_h.bias f4 [150]
0	0xbd48c68b	-0.04901747
1	0x3e47fcd8	0.19530046
2	0xbd727cbf	-0.059201
3	0x3e1da526	0.1539503
4	0x3d6d5d68	0.057950407
5	0x3d6e12e6	0.05812349
6	0x3e11f8ce	0.14255068
7	0xbe0157c8	-0.12631142
8	0xbd7865c7	-0.060643937
9	0x3b7e2370	0.0038778447
10	0x3d9d0dc6	0.07668643
11	0x3da53d90	0.08068383
12	0x3d63a143	0.055573713
13	0x3e73747e	0.23774907
14	0xbe10de0c	-0.14147204
15	0x3d75c318	0.06000051
16	0x3e54c9f8	0.2078017
17	0x3e294c59	0.1653303
18	0x3dedf446	0.11618857
19	0x3e21e4bb	0.1580991
20	0xbe525404	-0.20539862
21	0x3d6be372	0.057589956
22	0xbd70819a	-0.058717348
23	0xbe116838	-0.14199913
24	0xbda58d35	-0.08083574
25	0x3e29012a	0.1650435
26	0xbdd56d4e	-0.10421239
27	0x3d6fffa4	0.058593407
28	0x3deddfa9	0.116149254
29	0xbd690cd8	-0.056897014
30	0xbe6b360f	-0.2296984
31	0xbd567374	-0.0523562
32	0xbe08de84	-0.13366133
33	0xbdc91cca	-0.09819944
34	0x3e06051c	0.13087887
35	0x3e08530c	0.1331293
36	0x3e1a0cbd	0.15043922
37	0x3e53aeac	0.20672101
38	0x3e1ea18d	0.15491314
39	0xbd75156b	-0.05983488
40	0xbdc7d63d	-0.097576596
41	0x3daad338	0.08341068
42	0x3d729128	0.059220463
43	0x3d70a0c7	0.05874708
44	0xbe0d0534	-0.13771516
45	0x3e3848df	0.17996548
46	0x3df60be3	0.12013986
47	0x3d6ac9c7	0.057321336
48	0xbd638c98	-0.055554003
49	0xbde3208b	-0.110901915
50	0x3d2b28fb	0.04178713
51	0x3dab20fa	0.08355899
52	0x3e18c04b	0.14917104
53	0x3d5e26a1	0.05423606
54	0x3e2f75c0	0.17134762
55	0xbd65db50	-0.056117356
56	0xbe377371	-0.17915131
57	0xbd8c551b	-0.0685217
58	0x3dde38f7	0.10850709
59	0xbddf4499	-0.10901756
60	0x3e4257d5	0.18978818
61	0xbd7f18ad	-0.062279392
62	0x3e0c81ae	0.13721344
63	0xbd74aa82	-0.05973292
64	0xbd661086	-0.0561681
65	0xbe239ab3	-0.15976982
66	0xbe49b9df	-0.1969981
67	0x3d656a21	0.056009416
68	0x3d6a2f0b	0.05717377
69	0x3de726d1	0.112867005
70	0x3d7e47ff	0.06208038
71	0x3e2b6be5	0.16740377
72	0xbe556e5b	-0.20842879
73	0x3db96e67	0.09054261
74	0x3e41ce01	0.1892624
75	0xbd685d65	-0.056729693
76	0x3e1dea52	0.15421417
77	0xbe441436	-0.19148335
78	0x3e1d2074	0.15344411
79	0x3cd38872	0.025821898
80	0xbd02ba39	-0.031915877
81	0x3e22ce8c	0.15899104
82	0x3d9872bd	0.074437596
83	0xbe0f6158	-0.14001977
84	0x3e1b3733	0.15157776
85	0x3e21297f	0.15738486
86	0x3d69834e	0.057009988
87	0xbdf042f1	-0.11731518
88	0xbdba6d36	-0.091028616
89	0xbd684e0d	-0.05671506
90	0xbe1d9a6d	-0.1539094
91	0x3d7838f4	0.06060119
92	0xbd754a89	-0.059885535
93	0x3de01aa3	0.109425806
94	0x3d8be2fa	0.06830402
95	0xbd4b568f	-0.049643096
96	0xbe006b5c	-0.12540954
97	0x3dfce052	0.12347473
98	0xbd1faae3	-0.03898133
99	0xbd8f9758	-0.070112884
100	0x3e3853a0	0.1800065
101	0x3d69f039	0.05711386
102	0x3d6f819f	0.058473226
103	0xbe2f0ddd	-0.17095132
104	0x3e18eac8	0.14933312
105	0xbdd02cd3	-0.101647995
106	0x3e23e7ee	0.16006443
107	0x3d639ad0	0.055567563
108	0xbd631c3d	-0.055446852
109	0x3e22acaa	0.15886179
110	0x3df90ec4	0.121610194
111	0xbe308084	-0.17236525
112	0xbdd0a6ab	-0.101880394
113	0xbe1347c9	-0.14382853
114	0x3d66fe63	0.056394946
115	0x3d709206	0.05873301
116	0x3e162a49	0.14664568
117	0xbe358aff	-0.17728804
118	0x3d63e9e3	0.055642974
119	0x3e1affc9	0.15136637
120	0x3d815683	0.06315329
121	0x3d50ef66	0.05100956
122	0x3e12fa84	0.14353377
123	0xbe00e666	-0.1258789
124	0x3d735519	0.059407327
125	0xbe0779f7	-0.1323012
126	0x3d596901	0.053078655
127	0x3cabc415	0.020967523
128	0xbd693365	-0.05693378
129	0x3d756af3	0.059916448
130	0xbe635293	-0.22199468
131	0x3dc633d2	0.09677853
132	0x3e030f3c	0.1279878
133	0x3db411a3	0.087924264
134	0xbe01fd75	-0.12694342
135	0x3d5f2201	0.054475788
136	0xbe32e8c5	-0.17471607
137	0xbd6e637a	-0.058200337
138	0xbd69ba2e	-0.05706232
139	0xbd6dbbe1	-0.058040503
140	0xbe32cd18	-0.1746105
141	0xbe0c96ab	-0.1372935
142	0xbdce983a	-0.10087629
143	0xbd6ca00c	-0.05776982
144	0xbe5c6c2f	-0.21525644
145	0xbd4eef0e	-0.05052095
146	0x3e509960	0.20371008
147	0xbd6b61cc	-0.057466313
148	0x3d6d2064	0.05789222
149	0xbe552c86	-0.20817766

attn.attn_energy.weight f4 [1, 150]
0	0xbed376b5	-0.41301504
1	0xbe9db53a	-0.30802327
2	0x3a58b60f	0.0008266875
3	0xbe725972	-0.23666933
4	0x3e86d25b	0.26332363
5	0x3b81d8eb	0.003962626
6	0x3e40c658	0.18825662
7	0xbe6bd148	-0.23029053
8	0x3e1fb983	0.15598111
9	0x3e027f40	0.12743855
10	0x3ea47ea4	0.3212787
11	0xbe288376	-0.16456398
12	0x3b6227d3	0.00345086
13	0xbe8b2de2	-0.27183443
14	0xbea440f1	-0.32080796
15	0x3bad03ab	0.0052799783
16	0x3eb2a0ab	0.34888205
17	0xbe9a022c	-0.30079782
18	0xbe8ce56a	-0.2751878
19	0xbed43938	-0.41449904
20	0x3e89c8f9	0.26911142
21	0x3b136653	0.002249141
22	0xbe5bcba8	-0.21464407
23	0xbe3f78ab	-0.18698375
24	0x3e3dcd76	0.18535408
25	0xbe961814	-0.29315245
26	0xbe6f16f4	-0.233486
27	0x3b98997e	0.0046569696
28	0xbe81d2a1	-0.2535601
29	0xbbd4eb2d	-0.0064977617
30	0x3eb175b9	0.34660128
31	0xbbbf5ee3	-0.005840169
32	0xbec2341d	-0.37930384
33	0x3e83cb77	0.2574117
34	0xbe553c04	-0.20823675
35	0x3e8b481e	0.2720346
36	0x3e9f1a41	0.31074718
37	0xbe8f71d1	-0.28016523
38	0x3e6c4e23	0.23076682
39	0xbaa16ad0	-0.0012315158
40	0xbe5c4b27	-0.21513043
41	0x3e60c115	0.21948655
42	0x3b25782c	0.002524863
43	0x395c2349	0.0002099398
44	0x3e1683ca	0.14698711
45	0xbee886f2	-0.45415455
46	0x3e6ef4a1	0.23335506
47	0x3b51aa07	0.0031992213
48	0xbb7618b1	-0.0037551338
49	0xbe320bec	-0.1738736
50	0x3e05c16e	0.13062069
51	0xbe224cc2	-0.15849593
52	0xbe2115f1	-0.15731026
53	0x3bf687f4	0.007523531
54	0x3e6d796c	0.2319085
55	0xbb5f7a51	-0.0034100006
56	0x3ea5db9c	0.3239411
57	0x3e6bd2fd	0.23029704
58	0x3ed8e536	0.42362374
59	0x3e26ed10	0.1630137
60	0xbea7e6ad	-0.3279318
61	0xbdabb705	-0.083845176
62	0x3ee9855b	0.45609555
63	0x3c6da140	0.014503777
64	0xbb908f9a	-0.00441165
65	0x3e3d3e21	0.18480732
66	0x3e56311f	0.20917176
67	0x3ae6580c	0.0017573847
68	0x3b8ae075	0.004238183
69	0xbe8b1bc0	-0.2716961
70	0x3e0b9449	0.13630785
71	0xbe9585f7	-0.2920377
72	0xbe6afe2f	-0.22948526
73	0x3e23dd10	0.16002297
74	0xbeace839	-0.33770922
75	0xbb13eefc	-0.0022572866
76	0xbf14f3f0	-0.5818472
77	0x3e549462	0.20759729
78	0xbdf369a2	-0.11885382
79	0x3deacea5	0.114651956
80	0x3e229dc2	0.15880492
81	0xbe7aef06	-0.24505243
82	0x3e4adee6	0.19811592
83	0x3e23ad69	0.1598412
84	0xbeb09570	-0.34489012
85	0x3ec3609a	0.3815964
86	0x3bc9ba00	0.006156206
87	0x3e36170a	0.17782226
88	0xbe42998b	-0.19003884
89	0xbb8d36b0	-0.004309498
90	0x3e6161bf	0.22009943
91	0x3b345c69	0.00275209
92	0xbb8a667b	-0.0042236424
93	0xbe71fa20	-0.23630571
94	0x3b9b7cb6	0.0047450913
95	0xbe2aa369	-0.16663899
96	0x3e63ca52	0.22245148
97	0xbe8d5757	-0.27605698
98	0x3e535f4c	0.20641822
99	0xbe7ad491	-0.2449515
100	0xbea1d61e	-0.3160867
101	0x3aeae2e2	0.00179204
102	0x3b93cf29	0.0045107794
103	0xbe8abf9f	-0.2709932
104	0xbe9c15dd	-0.3048543
105	0x3e3c0b55	0.18363698
106	0x3ea7382b	0.3266004
107	0x3bed3898	0.0072394125
108	0xbe9ad939	-0.30243853
109	0xbeb93d38	-0.3617952
110	0x3eb1da4c	0.3473686
111	0x3dc9dcde	0.0985658
112	0xbe2dfe84	-0.16991621
113	0xbe4d691c	-0.20059627
114	0x3b520927	0.0032048912
115	0x3b0104e8	0.0019686762
116	0xbebc409c	-0.36768043
117	0xbec2acc0	-0.38022423
118	0xbdfef627	-0.124492936
119	0xbe3da34a	-0.18519321
120	0x3b05955c	0.0020383215
121	0xbdbb0de2	-0.09133507
122	0xbe8d8853	-0.2764307
123	0xbe6660a6	-0.22497806
124	0x3b67c0b6	0.0035362667
125	0xbea6a729	-0.32549408
126	0x3b98c93d	0.0046626613
127	0xbde314df	-0.11087965
128	0xba8cf2df	-0.0010753534
129	0x3ed78a31	0.4209762
130	0x3ebc94f6	0.36832398
131	0x3ecc5745	0.3991033
132	0xbe8be155	-0.27320352
133	0xbe20785f	-0.15670918
134	0xbe56bca9	-0.20970406
135	0x3ba7d1a9	0.005121429
136	0xbe3e2888	-0.18570149
137	0xbe8493f7	-0.25894138
138	0xbb1fa31b	-0.0024358693
139	0xbbd0a118	-0.00636686
140	0xbe354c0f	-0.17704795
141	0x3dd5e3cd	0.1044384
142	0xbe3439a8	-0.17600119
143	0xbad84cdb	-0.0016502397
144	0x3eb51909	0.35370663
145	0xbc5df90e	-0.013548149
146	0xbeb201b7	-0.34766933
147	0xbb49df8b	-0.0030803408
148	0x3aa0935a	0.0012250945
149	0x3f08cc6c	0.53436923

gru.weight_ih f4 [450, 153]
0	0xbd86ea8d	-0.06587706
1	0x3d2982d3	0.04138453
2	0x3d1695d5	0.036763985
3	0xbde2c83c	-0.11073348
4	0x3e0ff517	0.14058338
5	0x3c7b8948	0.015352555
6	0x3c387584	0.011258487
7	0xbc0e29aa	-0.008676926
8	0xbd99ea8d	-0.0751544
9	0xbd814c11	-0.06313337
10	0x3e30b842	0.17257789
11	0xbe2785d3	-0.16359644
12	0x3d571326	0.052508496
13	0x3eaa6458	0.3327968
14	0x3e174f65	0.1477638
15	0xbb6b83bb	-0.0035936672
16	0xbe2566ab	-0.16152446
17	0x3d64cd0c	0.05585961
18	0x3e76ea19	0.24112739
19	0x3e5f832f	0.21827386
20	0x3c8915ed	0.016734088
21	0x3d61ae80	0.055098057
22	0x3d983b67	0.07433205
23	0xbd9e10ef	-0.077180736
24	0xbe955f97	-0.29174492
25	0x3d890a55	0.06691424
26	0x3e255489	0.16145529
27	0x3e32feaf	0.17479967
28	0x3d8235f6	0.063579485
29	0xbd23b5b8	-0.039968222
30	0x3db429de	0.08797048
31	0xbe4328ee	-0.19058582
32	0xbd9c143c	-0.07621047
33	0xbe670377	-0.22559915
34	0x3e90d3dc	0.28286636
35	0xbe2a3979	-0.16623487
36	0xbe2f80b2	-0.17138937
37	0xbdfd4dfe	-0.123683915
38	0xbcbe69d4	-0.023243822
39	0xb91799ef	-0.00014457827
40	0x3ec2a5ab	0.3801702
41	0x3e816d12	0.25278527
42	0x3e45c553	0.19313554
43	0x3db1e48c	0.0868617
44	0xbd3f3fb7	-0.046691623
45	0xbebdc2a1	-0.37062553
46	0x3ddf34fa	0.10898776
47	0x3d117dd2	0.035520382
48	0xbdd4aa18	-0.10384005
49	0x3c319d97	0.010840795
50	0xbde03824	-0.10948208
51	0x3d555f03	0.052092563
52	0x3e6ae15e	0.22937533
53	0x3d363ad7	0.044489708
54	0x3d07ceca	0.033156194
55	0xbdc0bcb8	-0.09410995
56	0x3e4e785d	0.20163102
57	0x3cb8fa23	0.022580212
58	0xbe44aa7f	-0.19205664
59	0x3e491e05	0.19640358
60	0xbdff0957	-0.12452953
61	0xbded4c26	-0.1158679
62	0x3d0d9370	0.034564435
63	0x3e46de12	0.1942065
64	0xbcf9d1e6	-0.030495595
65	0xbe320e63	-0.173883
66	0x3e1534a1	0.14570858
67	0x3e33d5b8	0.17561996
68	0xbe3a37ed	-0.18185396
69	0x3c50173e	0.012700854
70	0x3de6b189	0.11264331
71	0xbe1165eb	-0.14199035
72	0x3e7ac617	0.24489628
73	0x3de9b752	0.11411919
74	0x3ea3809c	0.3193406
75	0xbcf983f3	-0.030458426
76	0xbe61a65d	-0.22036119
77	0xbe7997ae	-0.24374267
78	0xbb8032d4	-0.003912309
79	0xbdb1ff53	-0.08691277
80	0x3e88e80c	0.26739538
81	0x3eb2f68a	0.3495372
82	0x3b5e42d3	0.0033914342
83	0x3d6eb17b	0.058274727
84	0x3dca77e9	0.09886152
85	0xbb69f917	-0.0035701448
86	0xbc9f4b41	-0.019445064
87	0xbd6f7f7b	-0.058471184
88	0xbe3d1cbd	-0.18467994
89	0xbc372422	-0.011178048
90	0xbcba2f99	-0.022727774
91	0x3da5cfbe	0.08096264
92	0x3df2ce42	0.11855747
93	0x3ec16457	0.37771866
94	0x3e2ae662	0.16689447
95	0xbdd05802	-0.10173036
96	0x3d736d69	0.059430514
97	0x3d6388d2	0.055550404
98	0xbdebf522	-0.11521365
99	0xbcebc80c	-0.028781913
100	0xbe36c624	-0.17849022
101	0x3dd0419d	0.10168765
102	0x3c3c7168	0.0115016475
103	0x3ccb8e02	0.024847988
104	0x3e972afe	0.29524988
105	0x3e030266	0.12793884
106	0xbcc2c3d5	-0.02377502
107	0x3d80138f	0.062537305
108	0xbd95de6b	-0.073178135
109	0xbc654448	-0.01399333
110	0x3dfe4e35	0.124172606
111	0x3ea4d2c7	0.3219206
112	0x3e75b239	0.23993768
113	0x3d97de64	0.074154645
114	0xbbc6feb0	-0.0060728416
115	0x3dd9e0d5	0.106385864
116	0xbd995974	-0.07487765
117	0x3d8bbe95	0.0682346
118	0x3e8a71b7	0.27039883
119	0x3e1ad300	0.15119553
120	0xbdd0ebeb	-0.10201248
121	0x3d9f2566	0.07770805
122	0xbd62c8ad	-0.05536716
123	0xbe107ea7	-0.14110814
124	0x3d8eb03c	0.06967208
125	0xbe848adb	-0.25887188
126	0xbdfdc2aa	-0.12390645
127	0x3d4ba1fa	0.04971502
128	0xbd520554	-0.051274613
129	0x3e2b63fd	0.16737361
130	0x3c0ed6b3	0.0087181805
131	0xba24be8a	-0.0006284496
132	0xbd9d4d9d	-0.07680819
133	0x3d841cec	0.06450829
134	0x3e373060	0.17889547
135	0xbde541fc	-0.11194226
136	0xbd9c00fb	-0.076173745
137	0x3e3e9204	0.18610388
138	0x3d709e74	0.058744863
139	0x3c8c994f	0.017162947
140	0x3ce72430	0.028215498
141	0x3dd52b5f	0.10408663
142	0xbdad4011	-0.08459485
143	0xbd6fa630	-0.058508098
144	0xbd7f4baf	-0.062328037
145	0x3e45cdf8	0.19316852
146	0x3d518517	0.051152315
147	0x3dff6d24	0.12471989
148	0xbdf76ec5	-0.120816745
149	0x3eec2fec	0.4613031
150	0xbe5c6e47	-0.21526442
151	0xbcdbfecb	-0.026854893
152	0xbde5a775	-0.112135805
153	0x3da88a34	0.08229485
154	0x3c91c551	0.017794283
155	0xbd306a33	-0.04307003
156	0x3e019a0c	0.1265642
157	0x3d1d5404	0.0384102
158	0xbd9e2b35	-0.07723085
159	0x3d444875	0.047920663
160	0x3dae6ecc	0.085172266
161	0xbe299bb3	-0.16563301
162	0x3d5cf0d8	0.053940624
163	0x3df8a370	0.12140548
164	0x3cc6dc3d	0.02427494
165	0x3d8271c3	0.063693546
166	0x3dab3b2a	0.08360894
167	0xbd5f787a	-0.054558255
168	0xbde5b2c9	-0.11215741
169	0x3db37e0f	0.08764278
170	0xbd0d6c2f	-0.034527
171	0xbd1bbab9	-0.03801987
172	0x3deedd75	0.11663333
173	0xbd6739ec	-0.056451723
174	0x3da66a88	0.08125788
175	0xbace15eb	-0.0015723085
176	0xbddbc6fd	-0.107313134
177	0xbcfd0fbb	-0.03089129
178	0x3c59daa6	0.013296759
179	0x3dad81ac	0.084719986
180	0x3e2af57c	0.16695207
181	0x3d44dc15	0.04806145
182	0x3e333b37	0.17503057
183	0x3cc6f1eb	0.024285277
184	0x3c21fa78	0.009886377
185	0xbc2f8e25	-0.010715042
186	0xbe032689	-0.12807669
187	0xbbf85473	-0.0075784265
188	0x3d9d4ac8	0.07680279
189	0x3e0c9316	0.13727984
190	0x3d027e4f	0.03185874
191	0xbd7eb3b2	-0.06218309
192	0x3e59d9c5	0.21274479
193	0xbb989f74	-0.00465768
194	0x3d8dcc55	0.06923739
195	0xbdbd4f03	-0.09243586
196	0x3d907459	0.070534416
197	0xbd91e53e	-0.071238026
198	0x3e2ada1f	0.16684769
199	0xbd091358	-0.033465713
200	0xbd33417d	-0.043763626
201	0x3dae15b3	0.085002325
202	0x3db5629a	0.088566974
203	0xbcda31bc	-0.026635043
204	0xbd142184	-0.036164775
205	0x3cae5125	0.021278927
206	0xbc91af3c	-0.017783754
207	0xbe5f6673	-0.21816425
208	0xbcf54165	-0.02993841
209	0x3e1c50a1	0.15265132
210	0xbd96c915	-0.07362572
211	0xbe6ad936	-0.22934422
212	0x3d96b577	0.073588304
213	0x3e0d2e3d	0.1378717
214	0x3dcda182	0.10040571
215	0x3e80ef52	0.25182587
216	0x3dcbd6ce	0.0995308
217	0xbb2a6ae4	-0.0026003653
218	0x3deadb26	0.114675805
219	0xbd537a8d	-0.051630545
220	0x3d1fd5d9	0.0390223
221	0xbd8a7a31	-0.067615874
222	0xbdd9f9b8	-0.10643333
223	0x3c384755	0.011247476
224	0x3e114e2a	0.14189973
225	0xbd1eb9a6	-0.038751267
226	0x3cbe1807	0.023204817
227	0x3ded4601	0.11585618
228	0xbbef8c35	-0.007310415
229	0x3e2082e9	0.15674938
230	0xbdb0eddc	-0.08639118
231	0x3d31eb63	0.043437373
232	0x3e2dbbc8	0.16966164
233	0xbca6c19a	-0.020355988
234	0xbe103d8c	-0.14085978
235	0x3d8a8c02	0.067649856
236	0x3c9205c0	0.017825007
237	0x3e491974	0.19638616
238	0x3de3adcd	0.11117134
239	0x3e3d792b	0.18503253
240	0x3c990761	0.018680276
241	0x3cd3c4b3	0.02585063
242	0x3df774e8	0.12082845
243	0x3e149dee	0.1451337
244	0x3e345428	0.17610228
245	0x3c817d9b	0.015806964
246	0x3d118c54	0.035534218
247	0x3cfda226	0.030961107
248	0x3cc819cb	0.024426362
249	0xbdd9f0cc	-0.106416315
250	0xbd97d5f9	-0.07413859
251	0x3dda1c3e	0.10649918
252	0x3d2c0860	0.042000175
253	0x3e080d5f	0.1328635
254	0x3d8735b0	0.06602037
255	0x3d8956cd	0.06706009

gru.weight_hh f4 [450, 150]
0	0xbbaf87a5	-0.0053567463
1	0xbcad63ce	-0.021165755
2	0x3d75b030	0.05998248
3	0xbbc4bcf7	-0.0060039717
4	0xbdde26bf	-0.10847234
5	0x3cef3d8e	0.029204156
6	0xbe3d036c	-0.18458337
7	0x3c2a0259	0.010376536
8	0xbdb19b80	-0.086722374
9	0x3dc9bc34	0.0985035
10	0xbdb1c183	-0.086794876
11	0xbdda4fdc	-0.10659763
12	0xbe8fb563	-0.28068075
13	0xbdce2e5c	-0.10067436
14	0xbb9f0139	-0.0048524407
15	0x3e7140d4	0.23559886
16	0xbc2d4c12	-0.010577219
17	0x3e12ce53	0.14336519
18	0xbe1da48a	-0.15394798
19	0x3e27a101	0.16370012
20	0xbc86147f	-0.016367195
21	0xbd59f12f	-0.053208526
22	0xbd4c3a98	-0.049860567
23	0xbe345b2f	-0.17612909
24	0xbdc8485a	-0.09779425
25	0x3d836aea	0.064168766
26	0x3d8e5a99	0.06950874
27	0xbeab2e6b	-0.33433852
28	0x3ee05897	0.4381759
29	0xbecc5250	-0.3990655
30	0xbd75ac6b	-0.059978884
31	0xbe98ef99	-0.29870299
32	0xbb4903e6	-0.003067249
33	0xbe6ff3dc	-0.23432869
34	0x3ec445fc	0.38334644
35	0x3da0250e	0.078195676
36	0x3dae2f47	0.08505111
37	0xbef9f7fd	-0.48822013
38	0xbd611070	-0.054947317
39	0xbd391198	-0.045182794
40	0x3db9936d	0.09061322
41	0xbe9a5f1f	-0.30150697
42	0x3e161288	0.14655507
43	0x3e05be34	0.13060838
44	0xbe48d312	-0.19611767
45	0x3f69c86c	0.91321445
46	0xbd3dffba	-0.046386458
47	0xbd9c0a4b	-0.07619151
48	0x3e7e59b4	0.24838907
49	0xbe675820	-0.22592211
50	0xbdacf66f	-0.08445441
51	0x3d8eb6d1	0.06968463
52	0xbcccdd2a	-0.025007803
53	0xbd955915	-0.07292382
54	0xbdf0a315	-0.117498554
55	0x3d93d00a	0.07217415
56	0xbc565bef	-0.013083442
57	0xbe41b46b	-0.1891648
58	0x3dba37fd	0.0909271
59	0x3e845a17	0.25849983
60	0x3f053944	0.52040505
61	0xbe8c4c53	-0.2740198
62	0x3dd2ef3a	0.10299535
63	0x3d85821e	0.065189585
64	0xbee8dd62	-0.45481402
65	0x3c74f870	0.01495181
66	0x3e409aa5	0.18808992
67	0x3dce7641	0.10081149
68	0xbe98d36c	-0.29848802
69	0xbd45b708	-0.048270255
70	0x3e954454	0.29153693
71	0xbe2a2299	-0.1661476
72	0x3f00bfa0	0.50292397
73	0xbd84f676	-0.06492321
74	0xbd7a98c3	-0.06118084
75	0xbd3025a6	-0.043004654
76	0x3d991301	0.07474328
77	0x3f1471dd	0.5798624
78	0x3e382de4	0.17986256
79	0xbe01ace2	-0.12663606
80	0x3f429c5f	0.76019853
81	0xbf1be98c	-0.6090324
82	0x3ed4b433	0.4154373
83	0x3eaeafaa	0.34118396
84	0xbeebe5dc	-0.46073806
85	0x3da2248c	0.07917127
86	0xbd54d04d	-0.051956464
87	0x3da4f2f4	0.08054152
88	0xbe442cab	-0.19157664
89	0xbe073431	-0.13203503
90	0x3df41815	0.11918656
91	0x3db16bc1	0.086631306
92	0x3e1bf1d6	0.15228972
93	0xbf036c28	-0.5133691
94	0x3e591a0f	0.21201347
95	0x3eefac1b	0.46810994
96	0x3d6183ea	0.055057444
97	0xbc3a85d2	-0.011384444
98	0x3dcfdbac	0.10149321
99	0x3e4bc970	0.19901061
100	0x3e2c3372	0.168165
101	0x3e2f6d19	0.17131461
102	0xbc9e20f1	-0.019302817
103	0xbe18a03d	-0.14904876
104	0x3cdf1c51	0.027235182
105	0xbe0c38fb	-0.13693611
106	0xbf10fd83	-0.5663683
107	0x3dd3f6ee	0.103498325
108	0xbe54b81c	-0.20773357
109	0x39deb11b	0.00042475094
110	0x3dbcb57c	0.09214303
111	0x3e8b26fd	0.27178183
112	0xbceb55e5	-0.028727481
113	0xbd497ee6	-0.049193285
114	0x3cbba988	0.022907987
115	0xbe006970	-0.12540221
116	0x3e082bf7	0.13298021
117	0xbe4a12ef	-0.19733785
118	0xbd55bef8	-0.052184075
119	0xbe16e751	-0.14736678
120	0xbeb02bfe	-0.34408563
121	0x3ece3601	0.40275577
122	0xbd6250e4	-0.055252925
123	0x3df0a8bb	0.11750933
124	0xbdb4a06f	-0.08819663
125	0x3e9033a3	0.28164396
126	0xbe4a88e9	-0.1977879
127	0x3e302bd6	0.17204222
128	0xbde194ff	-0.11014747
129	0x3e283b19	0.16428794
130	0x3e676874	0.2259844
131	0xbe506a92	-0.20353153
132	0xbe088106	-0.13330469
133	0x3de2f878	0.11082548
134	0x3da14665	0.07874755
135	0xbe3780ba	-0.17920199
136	0xbda91f5b	-0.08257934
137	0xbecfcc33	-0.4058548
138	0xbe589a64	-0.21152645
139	0x3da3c1c6	0.07995944
140	0x3d869a66	0.06572418
141	0x3c805d4f	0.015669493
142	0x3e209df5	0.15685256
143	0x3f2b2702	0.66856396
144	0x3e2ceb62	0.16886666
145	0x3d4e5acd	0.050379563
146	0xbe8c04de	-0.27347463
147	0x3e8f0b98	0.27938533
148	0xbe57c762	-0.21072152
149	0xbe4b3880	-0.19845772
150	0x3da68160	0.08130145
151	0xbd93923d	-0.07205627
152	0x3dbcde42	0.0922208
153	0xbd5ca463	-0.05386771
154	0x3dc63d84	0.09679702
155	0x3e029503	0.12752156
156	0xbdbd076c	-0.09229931
157	0xbde9ced9	-0.11416406
158	0xbdc4aaeb	-0.096029125
159	0x3d2e684b	0.04257993
160	0xbe034a35	-0.12821276
161	0x3da8bdc3	0.08239319
162	0x3e08b60e	0.13350698
163	0xbdec4afa	-0.11537738
164	0x3d81da68	0.06340486
165	0x3df5c324	0.12000111
166	0xbe59e1ad	-0.21277495
167	0xbe24e27b	-0.1610202
168	0xbd9084ec	-0.07056603
169	0x3c68bc53	0.014205056
170	0x3d41d4c1	0.04732204
171	0xbdba8900	-0.09108162
172	0xbd7c276f	-0.061561044
173	0x3dffea3c	0.124958485
174	0xbeb48d8b	-0.3526424
175	0x3ccb370b	0.02480652
176	0x3dcabbe3	0.09899118
177	0xbd89b4d3	-0.067239426
178	0x3da47e2a	0.080318764
179	0x3cc31695	0.023814479
180	0xbda31571	-0.07963074
181	0xbd508dc4	-0.05091645
182	0x3d8124fd	0.06305883
183	0x3cbde4a8	0.02318032
184	0xbdb73c30	-0.08947027
185	0x3e97f6ce	0.29680485
186	0xbde4e7cc	-0.11177024
187	0xbd5db1fd	-0.05412482
188	0xbd91e45c	-0.07123634
189	0xbdb40092	-0.08789171
190	0xbd8cea0e	-0.0688058
191	0xbe2498e6	-0.16073951
192	0xbdf2133b	-0.11820074
193	0x3e157b86	0.14597902
194	0xbc67ed72	-0.0141557325
195	0x3dbad1e1	0.091220625
196	0xbe267c79	-0.1625842
197	0xbd94b362	-0.07260777
198	0xbdd3b0bf	-0.10336446
199	0xbe80b2d2	-0.2513643
200	0xbd93c3cc	-0.0721508
201	0x3db933db	0.09043094
202	0xbdda0357	-0.10645168
203	0xbd918504	-0.07105449
204	0xbd9d0d9c	-0.076686114
205	0xbe94ac06	-0.29037493
206	0x3da0a894	0.07844654
207	0x3e8f7698	0.28020167
208	0xbd8d22d2	-0.06891407
209	0x3d3a9ce8	0.045559794
210	0xbe4b4d46	-0.19853696
211	0xbe4cb457	-0.19990669
212	0xbe5ce562	-0.21571878
213	0xbd247caf	-0.04015797
214	0xbe88f420	-0.26748753
215	0x3ddab889	0.106797285
216	0x3da6558d	0.08121786
217	0x3d89e025	0.06732205
218	0x3e494146	0.19653806
219	0xbdbc688b	-0.091996275
220	0x3d94fcc9	0.072747774
221	0xbc6bd4e6	-0.014394021
222	0x3d8548e6	0.06508045
223	0x3d613acc	0.054987714
224	0xbcdd0035	-0.026977638
225	0x3c267e07	0.010161883
226	0x3d72af36	0.059249125
227	0x3e2dc686	0.16970262
228	0xbd84a632	-0.06477012
229	0x3d7bb50c	0.061451957
230	0x3d79f834	0.06102772
231	0xbdd5e01e	-0.104431376
232	0x3e5772b6	0.21039852
233	0xbe501e88	-0.20324147
234	0x3dc6049e	0.096688494
235	0xbe10aca9	-0.14128365
236	0xbda39985	-0.07988266
237	0x3e533922	0.20627263
238	0xbd3f6f13	-0.046736788
239	0x3d975614	0.07389465
240	0x3d4f5ca3	0.050625455
241	0xbe1f7f29	-0.15575852
242	0x3e018040	0.1264658
243	0xbcb452a3	-0.02201206
244	0xbd9c854d	-0.076426126
245	0x3ca386e9	0.019961791
246	0xbdb16df7	-0.08663552
247	0xbce73030	-0.02822122
248	0x3d91d2d5	0.07120291
249	0xbde2be67	-0.110714726
250	0xbc265681	-0.01015246
251	0xbda94526	-0.08265142
252	0x3c336f67	0.010951853
253	0xbe46e0b0	-0.19421649
254	0xbe410d8b	-0.18852822
255	0x3c4a5a46	0.012350624

gru.bias_ih f4 [450]
0	0x3dc8e381	0.09809018
1	0x3d9b337b	0.075781785
2	0xba3fa2e1	-0.00073103426
3	0x3d47a88e	0.04874473
4	0x3ce78ddc	0.028265886
5	0x3e12e71e	0.14345977
6	0x3d47564b	0.04866628
7	0x3b849599	0.0040461537
8	0xbc4d9bf3	-0.012549388
9	0x3c9ccbf0	0.019140214
10	0xbbb0cb64	-0.00539534
11	0x3d6cbc78	0.057796925
12	0x3dc8a8a7	0.09797793
13	0x3bb7a75a	0.0056046667
14	0x3de04ba9	0.10951931
15	0xbd5aeb6f	-0.053447183
16	0xbd410a49	-0.04712895
17	0x3e5646f8	0.2092551
18	0x3d75eed9	0.060042236
19	0x3d8a3d8d	0.06750021
20	0x3cd56079	0.026046978
21	0x3d87399a	0.066027835
22	0x3d844eee	0.06460367
23	0x3dbc3c46	0.09191184
24	0x3e6506c0	0.22365856
25	0x3d23c51f	0.03998291
26	0x3e280914	0.16409713
27	0x3d060424	0.032718793
28	0x3d734c98	0.059399217
29	0x3d34039a	0.043948747
30	0x3dc03717	0.093855076
31	0x3dca6d8c	0.09884176
32	0x3dde1ae2	0.10844971
33	0x3d03872d	0.032111336
34	0x3d3dc604	0.04633142
35	0x3d899b41	0.067190655
36	0x3df8223b	0.12115904
37	0x3dae49b4	0.085101515
38	0x3dca0513	0.09864249
39	0x3d716b9e	0.058940522
40	0x3d8cbe05	0.06872181
41	0x3e064d1b	0.13115351
42	0x3d7c5883	0.06160785
43	0x3b53efe2	0.0032339026
44	0x3d6776c4	0.056509748
45	0x3dcd2c2c	0.10018191
46	0x3db1fb38	0.08690494
47	0x3da5212c	0.08062968
48	0x3d808ce3	0.06276872
49	0x3de5956c	0.112101406
50	0x3e235b98	0.15952909
51	0x3d8a69da	0.06758471
52	0x3e07c05f	0.13256977
53	0x3dfd18c9	0.12358243
54	0x3da4941c	0.08036062
55	0x3dc73da0	0.09728551
56	0x3d97775a	0.073958114
57	0x3d500162	0.05078257
58	0x3e2430a1	0.16034175
59	0x3ddd4d45	0.108057536
60	0xbda406ab	-0.08009084
61	0x3ca802cd	0.020509148
62	0x3c2bf4f6	0.010495415
63	0x3e12dffa	0.14343253
64	0x3d974f80	0.0738821
65	0x3deee1f0	0.11664188
66	0xbd9a432e	-0.07532345
67	0xbda6d881	-0.081467636
68	0x3e00ee2b	0.12590854
69	0x3d103e38	0.035215586
70	0x3e1d8e88	0.15386403
71	0x3e1f9452	0.15583923
72	0x3e2f4180	0.1711483
73	0x3d526e22	0.051374562
74	0x3e1c97cd	0.15292282
75	0x3d4ea4cc	0.05045013
76	0x3e15228a	0.14563957
77	0x3cc9dd31	0.024641605
78	0x3d39710c	0.045273826
79	0x3df6e52f	0.12055432
80	0x3dca750e	0.09885608
81	0x3e16dd1d	0.14732786
82	0x3d15714e	0.03648501
83	0xbba6f0fc	-0.0050946455
84	0x3e29c953	0.16580705
85	0x3cc92de1	0.02455801
86	0x3e280e87	0.16411792
87	0x3d6be4df	0.057591315
88	0xbd110551	-0.03540546
89	0xbcc7add3	-0.024374878
90	0x3ccaaf57	0.024741812
91	0xbd6d3266	-0.05790939
92	0x3ddedc38	0.10881847
93	0x3d1f2124	0.038849965
94	0x3d0e6c04	0.03477098
95	0x3d20475c	0.039130554
96	0x3de1dd4e	0.11028539
97	0x3da973e9	0.08274061
98	0x3de67fbf	0.112548344
99	0x3d2dcd2f	0.042432006
100	0x3e33cf55	0.1755956
101	0x3d840e41	0.06448031
102	0x3e050d5a	0.12993374
103	0x3e0f3f63	0.13989024
104	0x3de136ab	0.10996755
105	0x3c947540	0.018122315
106	0x3ca42df5	0.020041445
107	0xbd02590a	-0.031823196
108	0xbc5b5ec1	-0.01338929
109	0x3c46be49	0.012130328
110	0x3e00fb7f	0.12595938
111	0x3c8aa052	0.01692215
112	0x3bac83c3	0.0052647307
113	0x3e181cd1	0.14854743
114	0xbb085a25	-0.0020805683
115	0xbd0813f1	-0.033222143
116	0x3e424eb3	0.18975334
117	0x3ddd89e5	0.10817317
118	0x3e01721f	0.1264119
119	0x3d1834d7	0.037159767
120	0xbd47d481	-0.048786644
121	0x391b33d4	0.0001480126
122	0x3d202d9e	0.039106004
123	0x3dcfbb3d	0.10143135
124	0x3e05b6a9	0.1305796
125	0x3ccb992d	0.024853313
126	0x3dc027cf	0.09382593
127	0x3b88210f	0.0041543315
128	0x3dac5019	0.08413715
129	0x3d8c8301	0.068609245
130	0xbd1c80c4	-0.038208738
131	0xbcb3c370	-0.021943778
132	0xbd1ff46a	-0.03905145
133	0x3e1ab0d1	0.15106513
134	0x3dff4dc8	0.124660075
135	0x3d51c59b	0.051213842
136	0x3de7e2d9	0.11322565
137	0x3d7031d6	0.058641277
138	0xbd2798a7	-0.040917065
139	0x3e1ea2f9	0.15491857
140	0x3d5929fd	0.05301856
141	0x3d59c5aa	0.053167023
142	0x3c02a04d	0.007972789
143	0xbcbd9c1f	-0.023145733
144	0xbd5e3a69	-0.054254923
145	0x3e0770e8	0.13226664
146	0x3c547f2e	0.012969775
147	0x3ddb7098	0.10714835
148	0xbca5a646	-0.020220887
149	0xbaef35ea	-0.001825032
150	0x3e243f84	0.16039854
151	0x3cf13d1e	0.029448088
152	0x3dd89f1a	0.10577221
153	0x3c457659	0.012052142
154	0xbba7c8ed	-0.0051203878
155	0x3d682151	0.056672398
156	0x3e19721d	0.14984937
157	0xbd03760e	-0.032095008
158	0x3d5cfbeb	0.053951185
159	0x3d9f75f7	0.07786172
160	0x3e1d951f	0.15388916
161	0x3dad5d7b	0.084650956
162	0xbd5471f9	-0.051866505
163	0x3e46763a	0.19381037
164	0xbd18272a	-0.037146725
165	0xbcd7fa11	-0.026364358
166	0x3e352f31	0.17693783
167	0x3e3050c7	0.17218314
168	0x3da3f898	0.080064
169	0x3e39d0fe	0.1814613
170	0x3e1869b2	0.1488407
171	0x3d0464e9	0.032322798
172	0xbd70fb4f	-0.058833417
173	0x3cfb4de8	0.030676797
174	0x3e734fa1	0.23760845
175	0x3e33498e	0.17508528
176	0x3cebad45	0.028769145
177	0x3e1ca5c4	0.1529761
178	0x3e1ca181	0.15295984
179	0x3d984a8a	0.07436092
180	0x3ddbba49	0.107288904
181	0x3dbf3e2e	0.09338032
182	0x3dd86e8d	0.10567961
183	0x3dd69ed2	0.10479511
184	0xbd074647	-0.033026006
185	0x3d4de118	0.050263494
186	0xbd0cad36	-0.034344874
187	0x3d696086	0.056976818
188	0x3a63e955	0.0008694132
189	0xbdc8c635	-0.0980343
190	0x3e0b776a	0.13619772
191	0xbc965518	-0.018351123
192	0x3de75c9e	0.11296962
193	0x3d79f1ca	0.061021604
194	0x3e1dc20e	0.15406057
195	0xbce08067	-0.027404977
196	0xbdbedf5e	-0.09319948
197	0x3c7cc044	0.015426699
198	0xbc68f002	-0.014217379
199	0x3d692261	0.056917552
200	0xbce0aef4	-0.027427174
201	0x3d98e922	0.074663416
202	0x3c8f170b	0.017467042
203	0x3e23b611	0.15987422
204	0x3dc3bff5	0.09558097
205	0x3dd08156	0.10180919
206	0x3e18d095	0.14923318
207	0x3d940fae	0.07229553
208	0x3df7e071	0.12103356
209	0xb7de0ec4	-2.6471338e-05
210	0x3db80f9b	0.089873515
211	0x3e3c7023	0.18402152
212	0x3e8554bc	0.2604121
213	0xbc70cab1	-0.014696763
214	0x3e427f60	0.18993902
215	0xbdb60e05	-0.08889393
216	0x3d79f780	0.06102705
217	0x3dc0793c	0.093981236
218	0xbdb0cff4	-0.08633414
219	0x3d0d1837	0.03444692
220	0x3d6becb8	0.0575988
221	0xbde29379	-0.110632844
222	0xbd654f3e	-0.055983774
223	0xbc0072b2	-0.0078398455
224	0xbdd987e6	-0.10621624
225	0x3a874acc	0.0010321974
226	0xbb946782	-0.0045289407
227	0x3d9b1d0b	0.07573899
228	0x3da48a04	0.08034137
229	0x3dcb4348	0.09924942
230	0xbd0c406d	-0.03424113
231	0x3d6935ad	0.056935955
232	0x3e103eb4	0.1408642
233	0xbdad65f9	-0.08466715
234	0x3d6d0dce	0.057874493
235	0x3d38c0e9	0.04510585
236	0x3e1d29cb	0.15347974
237	0x3e346bfd	0.1761932
238	0xbd016d6f	-0.031598505
239	0x3dd1fbae	0.10253082
240	0x3dfa03f7	0.122077875
241	0x3e73b846	0.23800763
242	0x3db33177	0.08749669
243	0xbd360594	-0.044438913
244	0x3d20455c	0.039128646
245	0x3d53821f	0.051637765
246	0xbd3a2b7a	-0.04545162
247	0xbd0b333c	-0.033984408
248	0xbcc70d1d	-0.024298245
249	0x3de7f55b	0.11326095
250	0xbd68531b	-0.05671988
251	0xbc84e2c8	-0.016221419
252	0x3ce72160	0.028214157
253	0xbc13cd71	-0.009021149
254	0x3e0fef6f	0.1405618
255	0x3e1cea69	0.15323795
