models/TPN/1000_D.ckpt (torch_old, 72920 bytes, 7 tensors)

main.0.weight f4 [82, 165]
0	0xbf1cd91b	-0.61268777
1	0x3e4652b1	0.19367482
2	0x3cb9987c	0.022655718
3	0x3d83609c	0.06414911
4	0x3d8bbae7	0.06822758
5	0x3df81eef	0.12115275
6	0x3e1fbf84	0.15600401
7	0xbe3f3ecf	-0.18676303
8	0xbdf9a9fb	-0.12190624
9	0x3df03a21	0.11729837
10	0x3d77bc7d	0.06048249
11	0x3d7b6c00	0.061382294
12	0x3db6d3ef	0.08927142
13	0x3de9cf0d	0.11416445
14	0x3b8c93d7	0.004290085
15	0xbdd7039a	-0.10498734
16	0xbe05e7eb	-0.13076751
17	0xbd83f2a1	-0.06442762
18	0x3db71c69	0.08940966
19	0xbba97b4f	-0.0051721702
20	0xbdfa0e94	-0.12209812
21	0x3d82f280	0.063939095
22	0xbd2529a2	-0.040322907
23	0xbd8b5453	-0.06803193
24	0x3d390cfb	0.045178395
25	0x3e0efe24	0.13964134
26	0xbd5b2a6e	-0.05350726
27	0xbdec400a	-0.11535652
28	0xbd658812	-0.05603797
29	0xbe11c64f	-0.14235805
30	0x3cfe224c	0.031022213
31	0xbd37e0f3	-0.044892263
32	0x3d6b9ae8	0.057520777
33	0x3c305bfb	0.010764117
34	0xbd85c243	-0.06531193
35	0x3e12bf5f	0.14330815
36	0xbd7161b5	-0.05893107
37	0x3d7d601c	0.061859235
38	0x3dd1ad96	0.10238187
39	0xbd038ab6	-0.032114707
40	0xbcd012fe	-0.025399681
41	0x3d7cac36	0.06168767
42	0xbdb3f015	-0.087860264
43	0x3d2692f5	0.040667493
44	0xbd9f8e96	-0.07790868
45	0xbdb2cd13	-0.08730521
46	0x3c67df02	0.01415229
47	0xbd8c1209	-0.068393774
48	0x3b0b1bf2	0.0021226374
49	0xbc973b50	-0.0184609
50	0xbb1dd11a	-0.0024080933
51	0x3da68019	0.081299014
52	0xbe21608b	-0.15759484
53	0x3dc6baf3	0.097036265
54	0x3c363cf2	0.011122929
55	0x3d47f14e	0.04881411
56	0xbd2f43e2	-0.042789347
57	0xbdde83d1	-0.10864986
58	0x3d62244e	0.055210404
59	0x3ded2b5f	0.11580538
60	0x3d2b4081	0.041809563
61	0xbdc43086	-0.095795676
62	0xbdf31233	-0.118687056
63	0x3d2b7345	0.041857976
64	0xba539561	-0.00080712704
65	0xbc9ecd36	-0.019384962
66	0x3dad7359	0.084692664
67	0xbcb738f3	-0.022366023
68	0xbd6ad3b1	-0.05733079
69	0xbe3fc160	-0.1872611
70	0x3e1d0f06	0.15337762
71	0xbd197da4	-0.037473336
72	0xbd6cc2dc	-0.05780302
73	0xbcaf1943	-0.02137435
74	0x3da62c09	0.08113868
75	0xbd8a69f3	-0.067584895
76	0x3e6008b7	0.21878324
77	0xbb259f28	-0.0025271866
78	0x3d8903e0	0.06690192
79	0x3e3c16d4	0.18368083
80	0xbd323c38	-0.04351446
81	0xbd16a031	-0.036773864
82	0x3d670a19	0.056406114
83	0xbd9310c2	-0.07180931
84	0xbe384a57	-0.17997108
85	0xbd0900cc	-0.033448026
86	0xbce01de3	-0.027358001
87	0xbc1df761	-0.009641499
88	0xbd27683f	-0.0408709
89	0x3e240e8b	0.16021173
90	0x3c849f32	0.016189191
91	0x3d27b71b	0.040946107
92	0xbe158c26	-0.14604244
93	0xbcb5b8d8	-0.022182867
94	0xbd02412d	-0.031800438
95	0x3d8c1c9c	0.06841394
96	0xbdceef19	-0.10104198
97	0xbddc7a36	-0.107654974
98	0x3e37229a	0.17884293
99	0xbdebfe54	-0.115231186
100	0x3cd99495	0.026560107
101	0x3cc8df55	0.024520556
102	0x3d55c8fa	0.05219362
103	0xbdcd744f	-0.1003195
104	0x3c14b81e	0.0090771
105	0x3d88df7d	0.06683252
106	0xbd3dfd4f	-0.046384152
107	0x394458f8	0.0001872516
108	0x3e03dcee	0.12877247
109	0x3e4826ff	0.19546126
110	0x3d47170b	0.04860596
111	0xbcf98ba8	-0.030462101
112	0x3c50041a	0.01269629
113	0xbdaa7b90	-0.08324349
114	0xbcf8807d	-0.030334705
115	0xbd2c86fe	-0.042120926
116	0x3d9b83fd	0.07593534
117	0xbc0c7077	-0.008571736
118	0xbd2b26b7	-0.04178497
119	0xbd9a4127	-0.07531958
120	0x3bff8110	0.007797368
121	0xbc50e2c7	-0.01274938
122	0xbce197dc	-0.027538233
123	0xbda23fa8	-0.07922298
124	0x3d0dfaa4	0.034662858
125	0x3d9f5e72	0.07781686
126	0x3d1b1451	0.037861172
127	0xbda9da97	-0.08293646
128	0xbd79414a	-0.06085328
129	0x3cbecf04	0.023292072
130	0x3b5403fe	0.0032351012
131	0x3c1e6f9b	0.0096701635
132	0x3c07a191	0.0082782665
133	0x3d0cc765	0.034369845
134	0x3e26f9f5	0.16306289
135	0x3cc353ee	0.023843732
136	0xbcf83ce5	-0.030302474
137	0x3dd8492f	0.10560834
138	0x3e89d294	0.2691847
139	0xbe1551d9	-0.14582004
140	0xbcfad6b7	-0.030619962
141	0xbd28de07	-0.041227367
142	0x3d1c81d5	0.038209755
143	0x3e4f1753	0.20223741
144	0xbc696502	-0.014245274
145	0xbd8a9f35	-0.067686476
146	0x3ca037b3	0.01955781
147	0xbd3059dd	-0.04305445
148	0x3c4dc1f8	0.012558453
149	0x3e21a03f	0.15783785
150	0x3d1b0ac7	0.037852075
151	0xbd1e91d4	-0.03871329
152	0xbd5ec694	-0.054388598
153	0xbcec4ab6	-0.028844219
154	0xbd8a82da	-0.06763239
155	0xbdc1c960	-0.09462237
156	0xbdee67f7	-0.116409235
157	0x3d84d780	0.06486416
158	0xbdc306e3	-0.09522798
159	0xbdbc2828	-0.09187347
160	0x3d516401	0.05112076
161	0x3da6ef41	0.08151103
162	0xbd803470	-0.06260002
163	0x3e0bcdf1	0.13652779
164	0x3dc30206	0.0952187
165	0x3b941016	0.004518519
166	0x3cfd134c	0.03089299
167	0x3d8dfb37	0.06932681
168	0xbcfd67c3	-0.030933267
169	0xbe36c9fc	-0.17850488
170	0xbe67178e	-0.22567579
171	0x3e8b62d0	0.27223825
172	0x3ebc7494	0.36807692
173	0x3e7e8999	0.24857177
174	0xbedfdf3e	-0.43725008
175	0xbeaa8783	-0.33306512
176	0xbdf21193	-0.11819758
177	0x3e47522a	0.19464937
178	0x3de48bf9	0.1115951
179	0x3c89447a	0.016756285
180	0xba4910a3	-0.00076700206
181	0xba82e361	-0.0009985977
182	0xbba04c60	-0.004891917
183	0xbb684372	-0.003544059
184	0xbc98752d	-0.018610561
185	0x3aed6e74	0.0018114583
186	0x3c1c7342	0.009548964
187	0x3b92828a	0.004471128
188	0x3c857a2a	0.016293604
189	0x3c59c0ae	0.013290567
190	0xbc51ab06	-0.012797123
191	0x3c330eb7	0.010928801
192	0xbc862906	-0.016376983
193	0xbc4bb8f1	-0.01243423
194	0xba5639d6	-0.00081720704
195	0x3a04d3fb	0.0005066988
196	0xbb84257d	-0.0040327893
197	0x3c21b0cc	0.009868812
198	0xbae130cf	-0.0017180684
199	0xbc713bef	-0.014723762
200	0xbb8b18e5	-0.004244911
201	0x3ca67719	0.020320462
202	0xbbea74c1	-0.0071550314
203	0x3c8fbaa2	0.017545048
204	0x3c9c245d	0.019060308
205	0xbcfaaff7	-0.030601485
206	0x3a86fc82	0.0010298642
207	0x3c85cf1b	0.016334107
208	0x3bc6550b	0.0060526184
209	0x3ca5cd61	0.020239534
210	0xbbd9027b	-0.00662261
211	0x3b900ab7	0.0043958086
212	0xbc04cbf2	-0.008105265
213	0x3be0724a	0.006849562
214	0xbc271ff8	-0.010200493
215	0x3c262d5c	0.01014265
216	0xbc5dffc3	-0.013549748
217	0xbc64ee3d	-0.013972816
218	0xbc57aca0	-0.013163716
219	0xbb8d6381	-0.0043148403
220	0xbc574ba9	-0.013140597
221	0xb9df0a82	-0.00042541703
222	0xbc4b6a72	-0.012415515
223	0xbc9f97fd	-0.019481653
224	0x3c88319f	0.016625224
225	0xb9c21910	-0.00037021236
226	0xbbbf825c	-0.0058443975
227	0x3b809407	0.0039238962
228	0xbc24d36d	-0.010060173
229	0x3b89e0b0	0.004207693
230	0xbc9500ce	-0.01818886
231	0xbbdc19e1	-0.006716952
232	0xbc0ef099	-0.008724355
233	0x39c78d6f	0.00038061614
234	0xbc1c3280	-0.0095335245
235	0x3c142127	0.009041107
236	0x3c5ec270	0.013596162
237	0xbc3836dd	-0.011243549
238	0x3bb4d460	0.005518481
239	0x3ca7ea91	0.020497592
240	0x3bf5f526	0.0075060306
241	0x3aa7a805	0.0012791163
242	0x3b87f33b	0.0041488684
243	0x3bc27663	0.005934523
244	0x3c858966	0.016300868
245	0xbb9299de	-0.004473909
246	0x39381189	0.0001755414
247	0xbb944c74	-0.0045257155
248	0xbc08b0d1	-0.008342938
249	0xbb065a04	-0.002050043
250	0xbc8348c3	-0.016025906
251	0x3ab190e1	0.0013547206
252	0x3ab65515	0.0013910854
253	0xbbe4e9ff	-0.0069859023
254	0x3b91dfd5	0.0044517317
255	0x3be5258e	0.0069930023

main.0.bias f4 [82]
0	0x3f8a6f5c	1.0815234
1	0xbf61888d	-0.88098985
2	0xbaef1125	-0.0018239362
3	0xbdb9c329	-0.09070427
4	0x3f5ba17a	0.8579327
5	0xbe93876d	-0.2881426
6	0x3f03a031	0.5141631
7	0xbf1436ab	-0.57895917
8	0xbf10abea	-0.5651232
9	0xbf7ec339	-0.99516636
10	0x3ea55d0c	0.32297552
11	0x3dd14370	0.10217941
12	0x3ebbb095	0.3665816
13	0x3f937458	1.151988
14	0x3e7f5e64	0.24938351
15	0xbf27c9a3	-0.6554205
16	0xbf6a4bd9	-0.91521984
17	0xbefb7e6f	-0.491199
18	0x3f8f35e0	1.1188316
19	0xbe4982d8	-0.19678819
20	0x3e812af6	0.2522809
21	0xbf3b3be9	-0.7313829
22	0x3ef3322c	0.47499216
23	0x3f2f0a5e	0.68375194
24	0x3f35e19e	0.7104739
25	0x3f23be39	0.6396213
26	0xbfa34e3f	-1.2758254
27	0xbf3bddb5	-0.73385173
28	0x3ddc593d	0.10759208
29	0x3e2d6f4b	0.16936986
30	0xbf382ecd	-0.7194641
31	0xbe8bd0d2	-0.27307755
32	0x3f0d3c40	0.5517006
33	0xbf705594	-0.9388058
34	0x3f0312d9	0.51200634
35	0x3f6a1da3	0.9145147
36	0x3f95872d	1.1681877
37	0x3f1bc90a	0.60853636
38	0x3e8b4d6c	0.27207506
39	0xbf8f2861	-1.1184198
40	0x3df47594	0.11936489
41	0xbfa1eab2	-1.2649748
42	0x3f3adaf1	0.7299033
43	0x3f4fe66e	0.8121098
44	0x3e85dffe	0.26147455
45	0x3f844375	1.0333086
46	0x3ea57e18	0.32322764
47	0x3ecf8154	0.40528357
48	0xbd8f9930	-0.0701164
49	0x3f2e3a8d	0.6805809
50	0xbf046dca	-0.51730025
51	0xbf0769dd	-0.5289591
52	0xbf71f9cd	-0.9452179
53	0x3f34a161	0.70558745
54	0x3e4fa18a	0.20276466
55	0x3f6082f8	0.8769984
56	0x3e27555e	0.16341159
57	0xbf2d981d	-0.6781023
58	0x3f835af1	1.0262128
59	0x3ec61671	0.38688996
60	0xbefa77d4	-0.48919547
61	0x3ee21b93	0.44161662
62	0x3e2f9bd3	0.17149286
63	0x3f78eb03	0.972336
64	0x3f07da54	0.5306752
65	0x3d5cec6c	0.053936407
66	0x3fb84b87	1.4398049
67	0xbee9e4ec	-0.45682466
68	0x3d8935eb	0.06699737
69	0xbe5f49e4	-0.21805531
70	0x3e5a53b2	0.2132099
71	0x3ec1f8b6	0.37885064
72	0xbe2c4796	-0.16824183
73	0xbf6e6db8	-0.9313617
74	0xbf918179	-1.1367637
75	0xbf9bd97a	-1.2175744
76	0x3f043e64	0.516577
77	0x3e8a7e41	0.2704945
78	0x3f80b011	1.0053731
79	0x3ee697a4	0.45037568
80	0x3f7f7809	0.99792534
81	0xbf77ba7c	-0.9676893

main.2.weight f4 [41, 82]
0	0x3e6e6767	0.23281632
1	0x3efd166f	0.49431178
2	0x3e425702	0.18978503
3	0xbd962cc4	-0.07332757
4	0xbf0f1af1	-0.55900484
5	0xbdc090f5	-0.09402648
6	0xbd80e358	-0.062933624
7	0x3e1b3fd6	0.1516107
8	0x3eb771b3	0.35828933
9	0x3e44b0e0	0.19208097
10	0x3e06ecdc	0.13176292
11	0x3e7b132e	0.24519035
12	0xbdf1e289	-0.11810786
13	0x3e16707c	0.14691347
14	0x3dccc553	0.09998574
15	0xbd8f0e02	-0.06985094
16	0x3f57685c	0.84143615
17	0x3e60fc9b	0.21971361
18	0x3c84bbb8	0.016202793
19	0x3d71109e	0.058853738
20	0x3c620c48	0.013796873
21	0xbe8f30c9	-0.27966908
22	0x3e507b8c	0.2035963
23	0x3f029f33	0.5102417
24	0x3d5740c7	0.05255201
25	0xbdd45e0b	-0.103695
26	0x3e928db0	0.28623724
27	0x3d8a5be9	0.06755812
28	0xbd987180	-0.074435234
29	0xbdb4e3f5	-0.08832542
30	0x3e440f0e	0.19146368
31	0xbe8b7465	-0.2723724
32	0xbc9a5afc	-0.018842213
33	0x3e1fee06	0.15618142
34	0x3d0c89f7	0.03431126
35	0xbdb49dd8	-0.08819169
36	0xbe758792	-0.23977497
37	0xbe893f0f	-0.26805922
38	0xbe4cb516	-0.19990954
39	0x3e2aaa4e	0.16666529
40	0x3e38a65f	0.18032216
41	0xbd3071b6	-0.043077193
42	0x3e1277fa	0.1430358
43	0x3e500b71	0.20316865
44	0x3ba16288	0.004925076
45	0xbdbdf7fb	-0.09275814
46	0xbdac70ee	-0.08419977
47	0xbf54d277	-0.83133644
48	0xbed07bac	-0.40719354
49	0xbe924fe9	-0.28576592
50	0x3e2aebce	0.16691515
51	0xbe0d6321	-0.13807346
52	0xbdaa2ece	-0.083097085
53	0x3de311a1	0.11087347
54	0xbdc02c63	-0.09383466
55	0x3e12cb67	0.14335404
56	0x3f1f1fda	0.62157977
57	0x3d9ceb83	0.07662108
58	0xbdb3c7e4	-0.087783605
59	0xbd9c629e	-0.07635997
60	0x3dbe8391	0.09302438
61	0xbef9fcd7	-0.48825714
62	0x3e11b673	0.14229755
63	0x3e30d9c2	0.17270568
64	0xbe4aa810	-0.19790673
65	0xbe1138b1	-0.14181782
66	0xb89077c8	-6.888766e-05
67	0xbe1c7182	-0.15277675
68	0xbded983c	-0.11601302
69	0x3d549326	0.051898144
70	0xbe05fa7d	-0.13083835
71	0xbdc9f5b7	-0.098613195
72	0xbe762e4f	-0.24041103
73	0x3dcfcce4	0.10146502
74	0x3d6fb8b0	0.05852574
75	0x3d206113	0.039155077
76	0xbe63319b	-0.22186892
77	0xbc44fecf	-0.012023642
78	0xbd0fa487	-0.035069015
79	0x3de73a7b	0.11290451
80	0xbd06b9fd	-0.032892216
81	0xbe205ea1	-0.15661098
82	0xbe63aebf	-0.22234629
83	0x3dca354c	0.09873447
84	0x3dafca80	0.08583546
85	0x3e4d2073	0.2003191
86	0x3cf6c8d0	0.030125052
87	0xbe7ac45e	-0.2448897
88	0x3e5f3220	0.21796465
89	0xbdb8763e	-0.09006928
90	0x3e7cdb67	0.2469307
91	0xbdd8827d	-0.10571764
92	0xbde71acd	-0.11284409
93	0x3e461241	0.19342901
94	0x3e8b5e82	0.2722054
95	0xbcec1548	-0.028818741
96	0x3e2edaaf	0.17075609
97	0xbdd284ff	-0.10279273
98	0xbef0c5f0	-0.47026014
99	0x3a67bcf3	0.00088401063
100	0x3cd7c578	0.026339278
101	0xbe40c8d7	-0.18826614
102	0xbd28576d	-0.041099
103	0xbf0e5ee7	-0.5561356
104	0x3dbdb8ed	0.092637874
105	0x3e67fd5a	0.2265524
106	0xbdcf2789	-0.101149626
107	0x3d2f3d76	0.042783223
108	0x3d13ff95	0.036132414
109	0x3d38f28c	0.045153186
110	0x3d1e9be2	0.03872288
111	0xbd5e4550	-0.05426532
112	0x3d4524bc	0.048130736
113	0xbdc8b6fa	-0.09800525
114	0x3d1568e3	0.03647698
115	0xbe83c278	-0.25734305
116	0xbe1c7f4a	-0.15282932
117	0x3d4bd520	0.0497638
118	0xbdb9762d	-0.09055743
119	0xbf4b16d2	-0.79331696
120	0x3dc5d3e3	0.09659555
121	0x3e8b6424	0.2722484
122	0x3bcffb5e	0.006347104
123	0x3cb80e18	0.022467658
124	0x3e322b6e	0.1739938
125	0xbcf78e5a	-0.030219246
126	0x3da0c40c	0.07849893
127	0x3d766d98	0.06016311
128	0xbdf30826	-0.118667886
129	0xbde0b214	-0.10971466
130	0xbee726c4	-0.45146763
131	0x3db53f05	0.08849911
132	0xbe2c7dd0	-0.16844869
133	0x3cf5c7a1	0.030002417
134	0xbe878994	-0.2647215
135	0xbe58c5fd	-0.21169277
136	0xbc36df5f	-0.011161654
137	0x3d6b4041	0.057434324
138	0x3c95fe0e	0.01830962
139	0xbd8c1412	-0.068397656
140	0x3e7575fb	0.23970787
141	0xbd95d9b4	-0.07316914
142	0xbec3c361	-0.38235
143	0xbbd44341	-0.006477744
144	0xbe48a89a	-0.19595566
145	0x3ce92c25	0.028463433
146	0x3d765577	0.0601401
147	0xbd98ec85	-0.074669875
148	0x3da04a52	0.078266755
149	0xbeefc22d	-0.46827832
150	0xbe241887	-0.16024981
151	0x3bb93f36	0.0056532873
152	0xbdd5f53a	-0.10447164
153	0x3e1eb418	0.15498388
154	0xbda977d8	-0.082748115
155	0x3e8c9377	0.27456257
156	0xbe7dd4fb	-0.24788277
157	0x3e06bd1f	0.13158081
158	0xbe1552c8	-0.1458236
159	0xbe7418f6	-0.23837647
160	0x3d794b4d	0.060862828
161	0x3dfede49	0.12444741
162	0xbcccf1a6	-0.02501757
163	0x3df12892	0.11775316
164	0x3d0df81f	0.034660455
165	0x3d9993ee	0.074989185
166	0xbe31524f	-0.17316554
167	0xbd2c88cc	-0.042122647
168	0x3db65687	0.089032225
169	0xbdde0f35	-0.10842744
170	0x3d7303b7	0.059329715
171	0xbd2f8f2c	-0.04286115
172	0x3de61b96	0.1123573
173	0xbdcdc691	-0.10047639
174	0x3e852d6b	0.26011214
175	0x3e220596	0.15822443
176	0x3e6412da	0.22272816
177	0xbe09093f	-0.13382433
178	0x3d5e63df	0.054294463
179	0x3e2db1c5	0.16962345
180	0xbdb1956a	-0.086710766
181	0x3e7f414f	0.24927257
182	0xbe856533	-0.2605377
183	0x3d975eb6	0.073911116
184	0x3dbfd90e	0.09367572
185	0xbd82147e	-0.06351565
186	0xbed0f014	-0.40808165
187	0x3d90f6c4	0.07078317
188	0xbd9d1140	-0.07669306
189	0xbe13e75c	-0.14443725
190	0x3ab9d335	0.0014177324
191	0x3d45e2aa	0.048311867
192	0xbd4f0772	-0.05054421
193	0xbd5fbcda	-0.054623462
194	0xbeb28116	-0.3486411
195	0x3e02c0ea	0.12768903
196	0xbec7c6de	-0.3901891
197	0xbf464815	-0.7745374
198	0xbb97adb0	-0.0046288595
199	0xbdc72561	-0.09723926
200	0xbe1624b1	-0.14662434
201	0xbef73f10	-0.482903
202	0xbe130da0	-0.14360666
203	0x3d9ab652	0.07554306
204	0xbe49ba01	-0.19699861
205	0xbdd6040a	-0.10449989
206	0xbda28471	-0.079354174
207	0x3dcd54fb	0.10025974
208	0x3d731dcc	0.05935459
209	0x3e47107a	0.19439879
210	0xbd92be24	-0.07165173
211	0xbceb83f8	-0.028749451
212	0xbe8bc974	-0.27302134
213	0xbd88a36d	-0.06671796
214	0xbc3093ea	-0.010777453
215	0xbdaef91b	-0.08543607
216	0xbea1eb56	-0.3162486
217	0xbe17ba4f	-0.14817165
218	0x3df9b1a3	0.12192085
219	0xbdc7e98d	-0.09761343
220	0x3d974319	0.07385845
221	0xbc99cad2	-0.01877347
222	0xbcd3a118	-0.025833651
223	0x3e047252	0.12934235
224	0xbede46fc	-0.43413532
225	0x3e80e7e7	0.25176927
226	0x3da20d0e	0.07912646
227	0x3d0c6aca	0.03428153
228	0xbc476310	-0.012169614
229	0xbe5ecf1d	-0.21758695
230	0x3d25b970	0.04046005
231	0x3d4547b1	0.048164073
232	0xbd5f4928	-0.054513127
233	0xbc2a056b	-0.010377268
234	0x3ec619a2	0.3869143
235	0xbe58a2b9	-0.21155824
236	0x3ec4b08d	0.38415948
237	0x3bac1728	0.005251784
238	0xbd52752d	-0.05138128
239	0xbe8a5182	-0.2701531
240	0x3e86495e	0.2622785
241	0xbf0eea19	-0.55825955
242	0x3e122212	0.1427081
243	0x3e610932	0.21976164
244	0xbeec7603	-0.46183786
245	0x3dca9887	0.098923735
246	0xbe28e3cb	-0.16493146
247	0xbe8c6411	-0.27420095
248	0x3c6e043a	0.014527375
249	0xbce0775e	-0.027400669
250	0x3d8fabda	0.070152
251	0x3d9269d0	0.071490884
252	0xbe5eed5c	-0.21770233
253	0xbe345901	-0.17612077
254	0xbe81f12d	-0.25379315
255	0xbefe6cc8	-0.49692369

main.2.bias f4 [41]
0	0x3e6d4cc5	0.23173817
1	0x3f89583d	1.0730053
2	0x3f55dc18	0.8353896
3	0x3f9b7871	1.2146131
4	0x3cdbcd5a	0.026831318
5	0x3e9d443c	0.3071612
6	0xbfb171b1	-1.3862821
7	0x3bfb4f90	0.0076693967
8	0xbf9d11e9	-1.2271091
9	0xbec7adc8	-0.38999772
10	0xbeab70d6	-0.33484524
11	0x3e2d7198	0.16937864
12	0xbeb16edb	-0.3465489
13	0xbfbaa675	-1.4582049
14	0x3eba565d	0.36394015
15	0xbd199d37	-0.037503447
16	0x3ea4b7dc	0.32171524
17	0xbdebd00b	-0.115142904
18	0xbf3572f4	-0.7087853
19	0x3f979f5f	1.1845511
20	0x3f26debb	0.6518361
21	0xbf7de432	-0.99176323
22	0x3f312b7d	0.6920698
23	0xbfa957ef	-1.322996
24	0x3f9895c0	1.19207
25	0x3f4c02b1	0.79691607
26	0x3efd370a	0.49456054
27	0xbf81e10e	-1.0146806
28	0xbfcaab38	-1.5833502
29	0x3f04c0c3	0.5185663
30	0x3f957c29	1.1678516
31	0x3f38fbea	0.7225939
32	0xbe0b056d	-0.13576289
33	0x3eeb9ede	0.46019644
34	0x3fec6e6e	1.84712
35	0xbfb17db4	-1.3866487
36	0x3e8504bc	0.25980175
37	0xbedd5964	-0.43232262
38	0x3fab6116	1.3389003
39	0xbcc8497e	-0.024449106
40	0xbe52ba71	-0.20578934

main.4.weight f4 [20, 41]
0	0xbe6ed3f2	-0.23323038
1	0x3e9c3ab3	0.30513534
2	0xbd8ae299	-0.06781501
3	0xbd4ffdc8	-0.050779134
4	0x3cf34f52	0.029700909
5	0x3d9b11e7	0.07571774
6	0x3d717919	0.05895338
7	0xbed3d3de	-0.4137258
8	0x3e1ec4d7	0.15504776
9	0xbd68fe3b	-0.056883078
10	0x3e3a55d6	0.18196806
11	0xbe6edc49	-0.2332622
12	0xbd986c49	-0.07442529
13	0xbdced54b	-0.10099276
14	0xbe57d099	-0.21075667
15	0xbd0f8c60	-0.03504598
16	0xbeeae438	-0.45877242
17	0xbde8a944	-0.1136041
18	0x3bf04ed2	0.007333615
19	0xbdfe6410	-0.12421429
20	0xbe0a3c74	-0.13499624
21	0xbd9ae8d6	-0.07563941
22	0x3d892846	0.06697135
23	0x3db8f4e8	0.09031087
24	0x3ea24d07	0.31699392
25	0x3e1dcb6f	0.15409635
26	0xbc56c3d9	-0.013108217
27	0xb981e2f4	-0.0002477389
28	0x3d39d882	0.045372494
29	0xbe837df1	-0.25682023
30	0x3dfb4057	0.12268131
31	0x3e9c15e9	0.30485466
32	0x3cfc39c9	0.030789273
33	0xbecfee7c	-0.40611637
34	0x3e714bb2	0.23564032
35	0x3e0767a0	0.13223124
36	0x3e84b4da	0.2591923
37	0xbd5ad54c	-0.053426072
38	0x3e85c99d	0.2613038
39	0x3e3d090c	0.18460482
40	0x3dbbae97	0.0916416
41	0xbde5eadd	-0.11226437
42	0x3dc5d894	0.096604496
43	0x3e952f73	0.29137763
44	0xbe2933f3	-0.16523723
45	0x3ddb430e	0.10706149
46	0x3e948cbc	0.29013622
47	0xbd36a47e	-0.044590466
48	0x3daa76a9	0.08323414
49	0x3e1eae42	0.15496162
50	0xbcb5e512	-0.022203956
51	0x3e27d7a0	0.16390848
52	0xbe3fcc62	-0.1873031
53	0x3dc95fc5	0.0983272
54	0xbe803f82	-0.25048453
55	0xbdeed8aa	-0.11662419
56	0xbcfce7a3	-0.030872172
57	0x3ea51990	0.32246065
58	0xbcff16b8	-0.031138763
59	0xbc75d3c6	-0.015004104
60	0xbc81bfdf	-0.015838562
61	0x3e50b16c	0.20380181
62	0x3e9def08	0.3084643
63	0x3c833f48	0.016021386
64	0x3d50dc2a	0.050991215
65	0x3ebb47ca	0.36578208
66	0x3d440908	0.047860175
67	0xbebd04d0	-0.36917734
68	0x3d0d925b	0.034563404
69	0x3e1fb82d	0.15597601
70	0x3e0b27b5	0.13589366
71	0x3d7d46fa	0.061835267
72	0x3e0a548f	0.13508819
73	0x3d41191b	0.047143083
74	0x3e6ae6f8	0.2293967
75	0xbe2fee92	-0.17180851
76	0xbe346480	-0.17616463
77	0x3e129e71	0.14318253
78	0xbda62c27	-0.0811389
79	0xbbd55def	-0.006511442
80	0xbe0e7c5e	-0.1391463
81	0x3e549a5c	0.20762008
82	0xbce76ba7	-0.028249575
83	0x3da4004a	0.08007868
84	0xbd970a7b	-0.07375046
85	0xbdbcb9b1	-0.09215105
86	0x3e1f54de	0.15559718
87	0x3ebdaedf	0.3704748
88	0x3d4bd971	0.049767915
89	0x3ecc2100	0.39868927
90	0xbe4dafc2	-0.20086578
91	0xbde074d0	-0.1095978
92	0x3c4d6ec0	0.012538612
93	0xbdb138eb	-0.08653434
94	0x3e973332	0.29531246
95	0xbe944566	-0.28959197
96	0x3de45e17	0.11150759
97	0x3e3d17e9	0.18466152
98	0xbdfd8a05	-0.12379841
99	0x3e09ae2a	0.13445345
100	0xbd61e14a	-0.055146493
101	0xbe780237	-0.24219595
102	0x3dd94ad3	0.10609975
103	0x3c3b9a18	0.011450313
104	0x3cc04fe0	0.023475587
105	0xbe70b353	-0.23505907
106	0xbd89939d	-0.06717608
107	0x3df8c72e	0.121473655
108	0xbec84445	-0.39114586
109	0xbd8c1c80	-0.068413734
110	0xbdf6ba38	-0.12047237
111	0xba4a5bb3	-0.0007719353
112	0xbdb49d7e	-0.08819102
113	0x3b64d0c5	0.0034914475
114	0x3e25bef5	0.16186126
115	0x3e091aa6	0.13389072
116	0xbef2b0f2	-0.47400624
117	0x3e329855	0.17440923
118	0x3da0016c	0.07812771
119	0xbcfb89a6	-0.030705284
120	0x3dc9052f	0.09815442
121	0x3e3ed8f4	0.18637449
122	0x3e1691ea	0.147041
123	0xbdb3a4fb	-0.08771702
124	0x3dc82251	0.0977217
125	0xbe92562d	-0.28581372
126	0xbdf85cee	-0.121271
127	0x3e0db0fa	0.13837042
128	0x3c0feb07	0.008784062
129	0x3e1b68ee	0.15176746
130	0x3dc0433d	0.09387825
131	0xbd82c3c5	-0.06384996
132	0x3d0d2d57	0.034467068
133	0x3d2381bf	0.039918657
134	0x3df30a7f	0.11867236
135	0x3d0c9d66	0.034329794
136	0xbcc3236f	-0.023820607
137	0x3e909db1	0.2824531
138	0xbd52d638	-0.051473826
139	0x3e2b68c1	0.16739179
140	0x3e65ced3	0.22442178
141	0xbe14e071	-0.14538743
142	0xbe9cf0a2	-0.30652338
143	0x3e158b50	0.14603925
144	0x3e010e55	0.12603123
145	0x3cc5cd9d	0.024145896
146	0xbda52c78	-0.08065122
147	0xbf690cc2	-0.9103509
148	0xbe2665a0	-0.16249704
149	0xbe144294	-0.14478523
150	0x3db6ade7	0.08919888
151	0x3e2f6e8d	0.17132016
152	0xbddc629a	-0.10760994
153	0xbdcbe37f	-0.09955501
154	0xbe704fe1	-0.23467971
155	0xbccc1f90	-0.024917394
156	0x3d8362ca	0.06415327
157	0xbed5f069	-0.4178498
158	0x3e3ce0dc	0.18445152
159	0x3e08ec5d	0.13371415
160	0xbd8b10b6	-0.06790297
161	0xbdaab486	-0.08335213
162	0x3dd58122	0.10425021
163	0x3d5805b7	0.052739825
164	0xbc70ab3e	-0.014689265
165	0x3ddca1de	0.10773061
166	0x3d8d4733	0.06898346
167	0xbd9f6de1	-0.077846296
168	0xbe0738e8	-0.13205302
169	0x3d1bf3bb	0.038074236
170	0xbd24b5f5	-0.04021259
171	0xbde17c4b	-0.11010035
172	0xbe222c2b	-0.15837161
173	0xbcb3ee7e	-0.021964308
174	0x3e959619	0.29216078
175	0xbdc3d612	-0.09562315
176	0xbec621bb	-0.3869761
177	0xbc344546	-0.011002844
178	0xbeb0cea3	-0.3453265
179	0xbe0d6471	-0.13807847
180	0x3b0cc1d9	0.0021477847
181	0x3ddac6f2	0.10682477
182	0xbdf9b10d	-0.12191973
183	0x3c838243	0.016053325
184	0xbd84dcc5	-0.06487421
185	0x3e13d816	0.14437899
186	0x3e1fa426	0.15589961
187	0xbea2a3c7	-0.31765577
188	0x3eb3e417	0.35134956
189	0x3d40685d	0.04697453
190	0xbdd66061	-0.104676016
191	0xbe5862ba	-0.21131411
192	0xbe34ed02	-0.17668536
193	0x3d615303	0.055010807
194	0x3e66685d	0.22500749
195	0xbeb9cdf4	-0.36289942
196	0x3bbe92bf	0.0058158333
197	0xbf1a86b6	-0.603618
198	0x3ef3973d	0.47576323
199	0xbe4b0ed8	-0.19829881
200	0x3e3a0028	0.18164122
201	0x3d8c67bb	0.068557225
202	0x3e4180c6	0.1889678
203	0x3e4ef31c	0.20209926
204	0xbe4aca79	-0.198038
205	0xbe544c63	-0.20732264
206	0x3dd42931	0.10359419
207	0x3d6c1901	0.057641033
208	0xbe0b5b61	-0.13609077
209	0x3cad6d29	0.021170216
210	0xbe398ac8	-0.18119347
211	0x3d8e75ea	0.06956084
212	0x3d41b6ec	0.04729359
213	0xbdbfbf5b	-0.0936267
214	0xbcfce52a	-0.030870993
215	0xbce40ec2	-0.027839068
216	0xbe17c0ca	-0.14819637
217	0x3dcf0942	0.10109188
218	0xbdf3cca2	-0.11904265
219	0xbd9e4d63	-0.07729604
220	0x3d568cfa	0.05238054
221	0x3d8c2cc0	0.06844473
222	0x3d7dfc67	0.062008288
223	0xbcfdb0df	-0.030968128
224	0x3d944c3f	0.07241105
225	0x3a3cdc8d	0.00072044955
226	0x3dcc00ac	0.09961066
227	0xbf0ede27	-0.5580773
228	0x3d102939	0.035195563
229	0xbea55bda	-0.3229664
230	0xbe7602f8	-0.2402457
231	0xbe0a3396	-0.13496241
232	0x3e8590a2	0.2608691
233	0x3df9b105	0.12191967
234	0xbe74c82b	-0.23904483
235	0x3cfd0e72	0.030890677
236	0xbd715b5e	-0.058925025
237	0x3e7c7234	0.2465294
238	0x3e2bb89d	0.16769643
239	0xbeb38f42	-0.35070235
240	0xbe5f8ad1	-0.21830298
241	0xbec5844a	-0.3857749
242	0xbb024490	-0.0019877292
243	0xbd709c44	-0.058742777
244	0x3e32a81d	0.17446943
245	0x3db32d91	0.087489255
246	0x3e0cbae4	0.13743168
247	0x3de11851	0.10990966
248	0x3da53f4d	0.08068714
249	0x3d29b32e	0.041430645
250	0xbe201c59	-0.15635814
251	0xbe54ef22	-0.20794347
252	0x3e1c8cbb	0.1528806
253	0xbd576d10	-0.052594244
254	0xbe0c9038	-0.1372689
255	0x3da7e1cd	0.08197365

main.4.bias f4 [20]
0	0xbedf65e6	-0.4363243
1	0x3f13c3c8	0.57720613
2	0x3f61bbe4	0.88177323
3	0xbf84a28a	-1.0362103
4	0x3e6fd97e	0.2342281
5	0xbf3b2dda	-0.7311684
6	0x3e41c976	0.18924507
7	0xbf2c48b7	-0.67298454
8	0x3e7e91dd	0.2486033
9	0x3d803881	0.06260777
10	0xbf022e7c	-0.5085218
11	0x3f172fe5	0.59057456
12	0x3ec93e27	0.3930523
13	0x3ee3e5e7	0.4451134
14	0x3f1f3cd7	0.6220221
15	0xbf8face9	-1.1224643
16	0x3e2bbba8	0.16770804
17	0x3e01ec44	0.12687784
18	0x3f3d610d	0.7397621
19	0xbf2cb7f0	-0.67468166

main.6.weight f4 [1, 20]
0	0x3dc76988	0.09736925
1	0xbd722097	-0.05911311
2	0xbde9bdf8	-0.11413187
3	0x3e67c1ab	0.22632472
4	0x3e94ab11	0.29036763
5	0x3e262d03	0.16228108
6	0xbeaffdb4	-0.34373248
7	0x3e975375	0.2955586
8	0xbe2dcf32	-0.1697357
9	0x3dcfdf67	0.101500325
10	0x3e350c54	0.17680484
11	0xbde1c591	-0.11024011
12	0xbf1c2c64	-0.61005235
13	0xbeec9a69	-0.46211556
14	0xbe2100ed	-0.1572301
15	0x3e252c54	0.16130191
16	0xbed8a407	-0.42312643
17	0x3e234cf2	0.15947321
18	0xbdd7f351	-0.10544456
19	0x3e7bfd5a	0.24608365
