TPN_models/safe_RGB/2000_G_decoder.ckpt (torch_old, 828453 bytes, 17 tensors)

attn.attn_e.weight f4 [150, 150]
0	0xbe81e953	-0.25373325
1	0xbd6a70a6	-0.057236336
2	0xbe9c65a6	-0.30546302
3	0x3dc7baf0	0.097524524
4	0x3c84f963	0.016232198
5	0x3e0b7276	0.13617882
6	0xbd843f9e	-0.064574465
7	0xbeaf4971	-0.3423572
8	0xbe125ba5	-0.14292772
9	0xbe8c5f40	-0.2741642
10	0xbd0a8c72	-0.033825345
11	0xbd196308	-0.03744796
12	0x3da2c561	0.07947803
13	0xbd84b7fe	-0.06480406
14	0xbed8024d	-0.42189255
15	0xbe33a262	-0.17542413
16	0xbeb66515	-0.35623994
17	0x3c57847d	0.013154146
18	0x3ed2a908	0.41144586
19	0xbe0903c7	-0.13380347
20	0xbe82da8c	-0.25557363
21	0xbd4c3f25	-0.049864907
22	0xbdeb0e21	-0.11477304
23	0xbb5a0229	-0.0033265448
24	0x3e6d45d9	0.23171176
25	0xbe612c69	-0.21989597
26	0xbec4f928	-0.3847134
27	0x3ea18202	0.315445
28	0xbe820377	-0.25393268
29	0xbe37a3a1	-0.17933513
30	0xbe773350	-0.24140668
31	0x3d4331a6	0.04765477
32	0x3e8a2bfe	0.26986688
33	0x3e4c4ec4	0.19951922
34	0x3df589dd	0.11989186
35	0x3dcf8cfc	0.101343125
36	0x3e17be3b	0.14818661
37	0xbd17c022	-0.037048467
38	0x3ba7ee75	0.005124862
39	0x3e2b2aed	0.16715594
40	0xbd3bbdee	-0.045835428
41	0x3b287375	0.0025703583
42	0xbe1c0a08	-0.15238202
43	0xbe0fce45	-0.1404353
44	0x3c2b1d99	0.010444068
45	0x3d0421a1	0.032258634
46	0xbebaa61f	-0.36454865
47	0xbe64de5c	-0.22350448
48	0x3d73cd98	0.05952224
49	0xbe9240d7	-0.28565094
50	0xbe9f37f8	-0.31097388
51	0x3e6482db	0.22315542
52	0xbbe51862	-0.006991432
53	0x3d0daeec	0.034590647
54	0x3eaf24ed	0.3420786
55	0xbe1186c9	-0.14211573
56	0xbdfde33a	-0.12396856
57	0xbe8c9b99	-0.27462462
58	0xbe24c791	-0.16091754
59	0xbe76e18c	-0.24109477
60	0x3d47315d	0.04863106
61	0xbdd4ecfe	-0.10396765
62	0xbdb9c990	-0.09071648
63	0xbe2c5707	-0.16830073
64	0x3e65861a	0.22414437
65	0x3d8b7162	0.068087354
66	0xbd9434d2	-0.07236637
67	0x3e2d0e8f	0.16900085
68	0xbe55836e	-0.20850918
69	0xbdde4d14	-0.10854545
70	0xbe2effd7	-0.17089783
71	0xbf13e76b	-0.5777499
72	0x3d6a923b	0.057268362
73	0x3eb3ed30	0.35141897
74	0xbe20b0fb	-0.15692513
75	0x3cdd566f	0.027018754
76	0xbe535573	-0.20638065
77	0xbe1e4160	-0.15454626
78	0xbdc287f9	-0.09498591
79	0x3e5e16bc	0.2168836
80	0xbe53d441	-0.20686437
81	0xbeb67791	-0.35638097
82	0xbe9a0111	-0.3007894
83	0xbe6e4b1d	-0.23270841
84	0x3dcfabcb	0.10140189
85	0xbe905733	-0.28191528
86	0xbd6599e9	-0.056054983
87	0xbe7b3ce6	-0.2453495
88	0x3e052fb1	0.13006474
89	0xbdad4e41	-0.084621914
90	0x3e3b3482	0.18281749
91	0xbdf0473e	-0.11732338
92	0x3e5831db	0.21112768
93	0xbddae064	-0.1068733
94	0xbe5aa18e	-0.2135069
95	0xbd7f7343	-0.06236578
96	0x3e041b56	0.12901053
97	0xbd86e240	-0.065861225
98	0x3ee2571c	0.44207084
99	0xbe2f6c11	-0.17131068
100	0xbe1d09d1	-0.15335776
101	0xbe025ab2	-0.1272991
102	0xbe1c5b02	-0.15269092
103	0xbde43ab5	-0.1114401
104	0xbecdc266	-0.40187377
105	0xbe9a895a	-0.30182916
106	0xbdbc7d4a	-0.092035845
107	0x3d9d7b5f	0.07689547
108	0xbe18fa12	-0.14939144
109	0xbdafb730	-0.08579862
110	0xbe9f9958	-0.3117168
111	0x3e6a3137	0.22870336
112	0xbe50afd6	-0.20379576
113	0xbe46a02b	-0.19397037
114	0x3ea20fbb	0.31652626
115	0xbdda8a85	-0.10670952
116	0x3d146b0c	0.0362349
117	0xbea2f0c5	-0.31824318
118	0x3e991e93	0.2990614
119	0x3e1d33bf	0.15351771
120	0xbea59751	-0.32342008
121	0xbe28188b	-0.16415612
122	0x3d6fa1d9	0.05850396
123	0xbdc132cf	-0.09433519
124	0xbcd79555	-0.026316324
125	0x3e1c04c9	0.152362
126	0x3ecba366	0.397731
127	0xbe97a8c2	-0.2962094
128	0x3eb7f82e	0.35931534
129	0x3e5174e3	0.20454745
130	0xbdab2d44	-0.08358243
131	0x3e77c1f6	0.24195084
132	0x3e624d42	0.22099784
133	0xbeebdf67	-0.4606888
134	0x3d9482b6	0.07251494
135	0x3e2c618c	0.16834086
136	0xbe28c52a	-0.16481462
137	0x3e0e315c	0.13886017
138	0xbe9d9420	-0.30777073
139	0xbee404ee	-0.4453501
140	0x3e81d605	0.25358596
141	0x3e38ccca	0.18046871
142	0x3ebdbe69	0.37059334
143	0xbdc19f21	-0.094541796
144	0xbdb13e8c	-0.08654508
145	0xbcc7a669	-0.024371343
146	0xbd3dec1e	-0.046367757
147	0x3e8d06f4	0.27544367
148	0x3e9e7f95	0.30956712
149	0xbe838f72	-0.25695378
150	0xbe14aba4	-0.145186
151	0xbd6a4442	-0.057194002
152	0x3e5d2c1e	0.2159886
153	0x3e4a148e	0.19734403
154	0xbe30f947	-0.17282592
155	0x3d3f4572	0.046697088
156	0x3e952de8	0.29136586
157	0xbe8b3da3	-0.27195463
158	0xbd09b83c	-0.033622965
159	0xbe855bf7	-0.26046726
160	0x3da40f55	0.08010737
161	0xbe7abdda	-0.24486485
162	0xbbebfdf1	-0.007201903
163	0xbdbd2aa0	-0.09236646
164	0x3eafada9	0.3431218
165	0xbe137e0c	-0.14403552
166	0xbe9cb843	-0.3060933
167	0x3e99ffc5	0.3007795
168	0xbe8045fe	-0.250534
169	0xbd76d526	-0.060261868
170	0x3eb04d53	0.34433994
171	0x3e8e9aeb	0.27852568
172	0x3d90328a	0.070408896
173	0x3dbeee22	0.09322764
174	0xbde4a5b1	-0.11164416
175	0x3e8b6396	0.27224416
176	0xbd2c131e	-0.04201042
177	0x3db8e0ef	0.09027278
178	0x3df20858	0.11817998
179	0xbe035223	-0.12824301
180	0x3e0c1e3f	0.13683413
181	0xbdeb251d	-0.11481688
182	0x3e06a09f	0.1314721
183	0x3d4d3dfc	0.05010794
184	0x3e159956	0.14609274
185	0xbe4c72cc	-0.19965667
186	0x3bd7da6f	0.0065873186
187	0x3ef5e548	0.4802649
188	0xbe2c9bca	-0.16856304
189	0xbdb4936f	-0.08817183
190	0xbe75918a	-0.239813
191	0x3df0c513	0.11756339
192	0xbd860360	-0.065436125
193	0x3eb01ed1	0.3439851
194	0xbe952cc2	-0.2913571
195	0x3d02f384	0.031970516
196	0xbd4e7dee	-0.050413065
197	0xbe1ddad5	-0.15415509
198	0x3e6a1d66	0.22862777
199	0xbe01a8df	-0.12662075
200	0x3e2bb8c3	0.167697
201	0x3dc98104	0.09839061
202	0xbd94f00d	-0.072723486
203	0x3d02f1f5	0.03196903
204	0x3e043c10	0.12913537
205	0xbddf5305	-0.109045066
206	0xbdb6e515	-0.08930413
207	0x3c698b34	0.01425438
208	0xbda7744a	-0.08176477
209	0xbd1c665d	-0.03818356
210	0xbe59e2f3	-0.2127798
211	0xbd940889	-0.072281905
212	0xbbb23fe6	-0.005439746
213	0xbe027da1	-0.12743236
214	0xbe1b7d92	-0.1518462
215	0xbe182663	-0.14858393
216	0xbe08113b	-0.13287823
217	0x3e297e5c	0.16552109
218	0x3e837b7d	0.25680152
219	0x3c6c0ba6	0.014407074
220	0x3eb21f19	0.3478935
221	0x3d7625ee	0.060094766
222	0x3e565a8b	0.20932977
223	0xbddd3b4c	-0.108023256
224	0xbd0ccb07	-0.03437331
225	0x3e68e014	0.22741729
226	0x3e26b5f6	0.1628035
227	0x3df685c5	0.12037233
228	0xbe2f6c54	-0.17131168
229	0x3e042056	0.1290296
230	0x3d171e37	0.03689405
231	0xbe66a9cc	-0.2252571
232	0x3e709b4a	0.23496738
233	0xbe10a065	-0.14123686
234	0xbd8613c4	-0.06546739
235	0x3e8c4af9	0.2740095
236	0xbde68538	-0.11255878
237	0x3d88820a	0.06665428
238	0xbe31f766	-0.17379531
239	0xbdf47e53	-0.11938157
240	0x3e42f2cb	0.1903793
241	0x3d81f6a5	0.06345872
242	0xbdb27062	-0.087128416
243	0xbd9e5692	-0.07731356
244	0x3cda73ac	0.026666485
245	0xbe0254f8	-0.12727726
246	0xbde061cf	-0.109561555
247	0xbdad5747	-0.084639125
248	0xbd940527	-0.07227545
249	0x3df03c30	0.1173023
250	0x3d2c8243	0.042116415
251	0x3e45768d	0.19283505
252	0xbb7b3a72	-0.0038334397
253	0xbc7d1c67	-0.015448666
254	0xbbfa4076	-0.007637079
255	0x3d1e9603	0.03871728

attn.attn_e.bias f4 [150]
0	0xbec274f8	-0.37979865
1	0x3dfd2d23	0.12362125
2	0x3ece1ef2	0.40257984
3	0xbe781df9	-0.24230184
4	0x3e792d1f	0.24333619
5	0xbe24072d	-0.16018362
6	0x3e46d236	0.19416127
7	0xbe5204ad	-0.20509596
8	0xbe603d24	-0.21898323
9	0xbbc425d4	-0.005985955
10	0xbebbaaf2	-0.36653858
11	0xbe09ae6d	-0.13445444
12	0xbdb95016	-0.09048478
13	0xbe74bad9	-0.23899402
14	0x3eb4a50a	0.35282165
15	0x3d0ee089	0.034882102
16	0xbe995f1f	-0.29955384
17	0xbec8a330	-0.39187002
18	0xbd8d4bff	-0.06899261
19	0x3e6c3a02	0.23069003
20	0xbcda6ef7	-0.02666424
21	0x3d31f270	0.043444097
22	0x3d19d92a	0.03756062
23	0x3d863be2	0.065543905
24	0xbeaeefc9	-0.34167317
25	0xbeba0156	-0.36329144
26	0xbf498891	-0.7872401
27	0x3eb15794	0.3463713
28	0xbafde9a0	-0.0019371994
29	0x3ed7232c	0.42019022
30	0xbe09b7d8	-0.13449037
31	0xbeb7f917	-0.35932228
32	0xbc42c2f2	-0.011887299
33	0xbf075a02	-0.52871716
34	0x3dc79cf1	0.09746731
35	0xbe9056c4	-0.28191197
36	0x3df8a0d8	0.121400535
37	0xbf5cb64f	-0.8621568
38	0xbefb2ac2	-0.4905606
39	0xbda96b07	-0.08272367
40	0x3e8cf026	0.2752697
41	0x3d8542a7	0.065068536
42	0x3d076c28	0.03306213
43	0x3d834bd9	0.06410951
44	0x3dc95b0b	0.09831818
45	0xbe858bdf	-0.26083276
46	0x3ea56e30	0.3231063
47	0xbd8bc990	-0.06825554
48	0x3ea37d58	0.31931567
49	0xbcd22b21	-0.025655331
50	0xbec66c61	-0.38754562
51	0xbee86121	-0.45386603
52	0x3d92d09e	0.07168697
53	0xbebe77d1	-0.37200788
54	0x3d49eecf	0.04930001
55	0xbe7c778d	-0.2465498
56	0xbe9c30f9	-0.30506113
57	0x3ebbeb1f	0.3670282
58	0x3ee907b9	0.45513704
59	0x3e70ea39	0.23526849
60	0xbec18e2a	-0.37803775
61	0xbdc9489c	-0.09828302
62	0x3ddd09d6	0.10792892
63	0xbe655639	-0.22396173
64	0x3ddacb3e	0.106832966
65	0xbeb2261e	-0.34794706
66	0x3cfe7f1a	0.031066466
67	0xbe0c4db9	-0.13701524
68	0xbd6e298b	-0.058145087
69	0x3dd4ce4a	0.10390909
70	0xbdf4c4b0	-0.11951578
71	0xbdd161fe	-0.10223769
72	0x3e36952d	0.17830344
73	0x3e365e5f	0.17809437
74	0x3c888d23	0.016668862
75	0x3da94107	0.08264356
76	0x3e104ae8	0.14091074
77	0x3cf20f9c	0.029548459
78	0xbe08af09	-0.1334802
79	0xbee1fe30	-0.44139242
80	0xbe68e59c	-0.22743839
81	0xbdce379f	-0.10069203
82	0x3d14244a	0.03616742
83	0xbe862163	-0.26197347
84	0xbdf06e2d	-0.11739764
85	0xbe8b3b4c	-0.27193677
86	0xbe1f4727	-0.15554486
87	0xbee31cf6	-0.44358033
88	0x3e4bf37e	0.19917104
89	0x3e872d1f	0.26401612
90	0xbea305b6	-0.31840295
91	0xbf173675	-0.5906747
92	0xbee6e2cb	-0.45094904
93	0xbebc5105	-0.36780563
94	0xbcd581fa	-0.026062954
95	0x3e8359b3	0.25654373
96	0xbe987b04	-0.29781353
97	0x3f0d2ba5	0.5514472
98	0xbe468c11	-0.19389369
99	0xbe39df0b	-0.1815149
100	0xbda53de6	-0.08068447
101	0x3d9f1c54	0.07769075
102	0xbed77f7d	-0.42089453
103	0xbeaf281f	-0.34210297
104	0xbdf204d2	-0.11817326
105	0x3e5162ed	0.20447893
106	0x3e337b41	0.17527486
107	0xbe70c9af	-0.23514436
108	0x3e9fdfda	0.31225473
109	0xbe746005	-0.23864754
110	0x3e60f684	0.21969038
111	0xbdb0d602	-0.08634569
112	0x3ef789f6	0.48347443
113	0x3e84c2bc	0.2592982
114	0x3ea2fec4	0.31834996
115	0xbea48b73	-0.3213764
116	0xbbc2edc3	-0.0059487536
117	0x3e844161	0.2583113
118	0x3ea8fefd	0.3300704
119	0x3ee7f125	0.45301166
120	0xbe9314ae	-0.28726715
121	0xbe47c6a1	-0.19509365
122	0xbe016fe3	-0.12640338
123	0xbe670d5c	-0.2256369
124	0xbec61ed3	-0.38695392
125	0x3d037b36	0.032099925
126	0x3d6a4c45	0.057201643
127	0x3e92a873	0.28644142
128	0xbdea2a2d	-0.11433826
129	0xbed75f96	-0.42065114
130	0xbe270c0b	-0.16313188
131	0x3e2f81bb	0.17139332
132	0xbda732bb	-0.08163973
133	0x3e04da0c	0.12973803
134	0xbe1a7ccc	-0.15086669
135	0x3dff051b	0.12452146
136	0x3f0be682	0.546486
137	0xbe9f09b0	-0.31062078
138	0x3e4a614f	0.19763683
139	0xbd996e64	-0.074917585
140	0xbd00cc42	-0.031444795
141	0x3eba98e6	0.36444777
142	0x3e8dac9d	0.27670756
143	0x3dacf148	0.08444458
144	0xbe667fbb	-0.22509663
145	0x3ed5d696	0.4176528
146	0xbeb3897b	-0.35065827
147	0x3de030e9	0.10946829
148	0xbe8a079b	-0.26958928
149	0xbe15e555	-0.14638264

attn.attn_h.weight f4 [150, 150]
0	0x3d52aa53	0.051431965
1	0x3c312cd2	0.010813909
2	0x3e9892be	0.29799455
3	0xbe8e2877	-0.27765247
4	0xbe553c24	-0.20823723
5	0xbd20f6b9	-0.039297793
6	0xbe522dc5	-0.20525272
7	0xbe8f061e	-0.27934355
8	0x3e408c08	0.18803418
9	0x3df1d082	0.11807348
10	0xbee1e259	-0.44118002
11	0x3dcc1e8d	0.099667646
12	0x3dbf6aa9	0.09346516
13	0x3e24d6e7	0.16097604
14	0xbd7d841a	-0.06189356
15	0x3ed927c6	0.42413157
16	0x3ee6b51e	0.45060056
17	0x3c725738	0.014791302
18	0xbda4713b	-0.080294095
19	0xbe05a7c5	-0.1305228
20	0x3e919393	0.28432903
21	0x3dcb1122	0.09915377
22	0x3e7d20a9	0.2471949
23	0xbdd71b47	-0.105032496
24	0x3d1a029f	0.037600156
25	0xbad0aac1	-0.0015920029
26	0x3dd69ff3	0.10479727
27	0xbe01755f	-0.1264243
28	0x3e9b4813	0.30328426
29	0xbd8bf8cd	-0.06834564
30	0xbe0c4643	-0.13698678
31	0xbea40096	-0.32031697
32	0xbdc095a9	-0.094035454
33	0x3dd091e0	0.101840734
34	0x3e393f99	0.18090667
35	0xbe21b097	-0.1579002
36	0x3e1166d9	0.1419939
37	0x3e10bf52	0.14135483
38	0xbd7f867f	-0.062384125
39	0x3eec0431	0.46096948
40	0x3d52a173	0.0514235
41	0x3e330674	0.1748293
42	0xbe0ccc72	-0.13749865
43	0xbd1cbaa2	-0.038263924
44	0x3df88250	0.1213423
45	0xbe832016	-0.25610417
46	0x3e7d054f	0.24709056
47	0xbd82221b	-0.06354161
48	0xbc5f936e	-0.01364599
49	0xbe84f752	-0.2596994
50	0xbd351797	-0.04421195
51	0x3d151d56	0.03640493
52	0xbe433f6f	-0.19067167
53	0x3e06041b	0.13087504
54	0xbd70ef30	-0.058821857
55	0x3e066f07	0.13128291
56	0xbe3bbb32	-0.18333128
57	0x3ea71661	0.3263426
58	0x3d34bf31	0.044127647
59	0x3d93ae6d	0.072110035
60	0xbe395868	-0.1810013
61	0x3df0d40d	0.117591955
62	0xbde62ea8	-0.11239368
63	0xbe40a9e4	-0.18814808
64	0xbde68c31	-0.11257208
65	0x3e970648	0.2949698
66	0x3e213ebc	0.15746588
67	0x3c823232	0.015893076
68	0x3d90bae6	0.07066898
69	0x3c2bb998	0.010481261
70	0x3e6f70b5	0.23382838
71	0xbf35b4d7	-0.70979065
72	0xbeb55da4	-0.35423005
73	0x3e15ea76	0.14640221
74	0x3c123c8d	0.008925569
75	0xbe5a2f6e	-0.21307155
76	0x3e7e5957	0.24838768
77	0x3edc03a3	0.42971525
78	0xbe8f9a9c	-0.28047645
79	0xbe2e9734	-0.17049867
80	0x3e4ab99f	0.19797371
81	0x3e7e8c88	0.24858296
82	0xbe0e509e	-0.1389794
83	0xbc79243e	-0.015206395
84	0xbe124b35	-0.14286502
85	0x3eaf49b1	0.3423591
86	0xbdaa8ccb	-0.083276354
87	0xbe2e0a5e	-0.16996142
88	0xbc89028c	-0.016724847
89	0xbb98faf7	-0.004668589
90	0x3e25820f	0.16162895
91	0x3eff72d5	0.49892297
92	0xbedcce80	-0.43126297
93	0xbd8e7bd9	-0.06957216
94	0x3d4b6eb5	0.049666125
95	0x3e83392f	0.25629565
96	0xbc9347e8	-0.017978624
97	0x3e8274d8	0.2547977
98	0x3c89e9ec	0.016835175
99	0xbd93c727	-0.0721572
100	0xbe89ca16	-0.26911992
101	0x3dcf9ea4	0.1013768
102	0x3d90e481	0.07074834
103	0x3e3a9b38	0.18223274
104	0x3e816a3f	0.25276372
105	0xbda895d2	-0.08231701
106	0x3e3a1642	0.18172553
107	0x3e191079	0.1494769
108	0xbd209be9	-0.039211188
109	0x39ff2414	0.0004866427
110	0x3f31249d	0.6919649
111	0xbdd3fb39	-0.10350651
112	0x3db23188	0.087008536
113	0xbd2dd88e	-0.04244285
114	0x3e946cc6	0.28989238
115	0xbd042b64	-0.032267943
116	0x3c3d9f83	0.011573675
117	0xbea06255	-0.3132502
118	0x3bd4d307	0.006494883
119	0x3d26656c	0.040624067
120	0x3e83d1ef	0.25746104
121	0xbcb0c896	-0.021580022
122	0xbd62e3bb	-0.055392962
123	0xbe23a40a	-0.15980545
124	0xbe9d3f49	-0.30712345
125	0xbf044479	-0.5166698
126	0x3b7835e0	0.003787391
127	0xbd8b916e	-0.06814848
128	0xbc9a4607	-0.01883222
129	0x3dde4036	0.10852091
130	0xbe29d881	-0.16586496
131	0x3e677aee	0.22605488
132	0xbd98e885	-0.074662246
133	0xbe60aec3	-0.21941666
134	0xbcdbd9d2	-0.026837263
135	0xbdc9a886	-0.098465964
136	0xbd020a84	-0.03174831
137	0xbe5039ba	-0.20334521
138	0xb9e063d7	-0.00042798996
139	0x3dc42937	0.095781736
140	0xbeb06870	-0.3445468
141	0x3eed8f8d	0.46398583
142	0x3e1678e7	0.14694558
143	0x3f0032c8	0.50077486
144	0xbdf2147d	-0.11820314
145	0xbf1956a9	-0.5989786
146	0xbc1de7de	-0.009637801
147	0xbe2569b9	-0.16153611
148	0x3ea09585	0.31364074
149	0xbce5e3ca	-0.02806272
150	0x3deb34c6	0.11484675
151	0x3da4010f	0.080080144
152	0xbe9b1355	-0.30288187
153	0xbe11279b	-0.14175265
154	0xbdbe5172	-0.09292878
155	0x3de53079	0.11190886
156	0xbbcf3cfd	-0.006324409
157	0xbe15fdb7	-0.14647566
158	0xbdbfbb2e	-0.093618736
159	0xbe8bfd55	-0.27341715
160	0xbc9a2cb2	-0.01882014
161	0xbe02174f	-0.12704204
162	0xbeb23dd5	-0.348128
163	0xbd5b5fc1	-0.053558115
164	0x3df7274f	0.120680444
165	0xbe11e390	-0.14246964
166	0xbeb5cc3d	-0.35507384
167	0xbbedc2e8	-0.0072559007
168	0x3e319148	0.17340577
169	0xbe0fa4e1	-0.1402774
170	0x3e07f050	0.13275266
171	0xbd0b5fe8	-0.03402701
172	0xbd1722f9	-0.036898587
173	0xbbf91497	-0.0076013315
174	0xbe2ed67a	-0.17074004
175	0xbeaba09a	-0.33520967
176	0x3e164cc5	0.14677723
177	0x3db241a2	0.08703925
178	0xbdf2fca8	-0.118645966
179	0x3e87533d	0.26430693
180	0xbcb5a9a7	-0.022175623
181	0xbc91d64d	-0.017802382
182	0x3e046847	0.12930404
183	0xbe2cc9a6	-0.16873798
184	0x3d3cb130	0.046067417
185	0x3e0aba03	0.1354752
186	0xbe6c4dd3	-0.23076563
187	0x3dc0de4c	0.094174
188	0xbd890a52	-0.066914216
189	0x3e0f0ca4	0.13969666
190	0x3dc98c04	0.09841159
191	0x3e48996f	0.1958978
192	0x3d0cd99b	0.034387212
193	0x3e8c6fb3	0.2742897
194	0x3dcb4139	0.099245496
195	0xbee7d892	-0.45282418
196	0x3e6ab4dd	0.22920556
197	0x3d9c18af	0.076218955
198	0xbe1dd9c4	-0.15415102
199	0xbe78f317	-0.24311481
200	0x3e3bcaa9	0.18339027
201	0xbdc16529	-0.09443123
202	0xbe201cee	-0.15636036
203	0x3e67e5f6	0.22646317
204	0x3e8202b0	0.25392675
205	0x3e55319a	0.20819703
206	0xbd46a746	-0.048499368
207	0x3d8408bc	0.064469784
208	0x3dcff6b8	0.1015448
209	0x3d93fb31	0.07225645
210	0x3e46bdf2	0.19408396
211	0x3ef90820	0.4863901
212	0xbd57b2ba	-0.05266068
213	0xbcea9ce3	-0.028639263
214	0xbe17b5fd	-0.14815517
215	0xbe409dc6	-0.18810186
216	0x3d3ccb62	0.0460924
217	0xbdf85cf9	-0.12127108
218	0xbdc8af38	-0.09799045
219	0x3e8e7a0a	0.27827483
220	0x3e1305a0	0.14357615
221	0x3ca43ce4	0.020048566
222	0x3def0279	0.116703935
223	0xbd8d25de	-0.06891988
224	0xbcdb4885	-0.026767978
225	0x3e2cbc97	0.16868816
226	0xbe973e43	-0.2953969
227	0xbda7b2f9	-0.08188433
228	0xbced1b0a	-0.028943557
229	0xbdd2a7d3	-0.10285916
230	0xbe995d92	-0.299542
231	0x3bddf0cf	0.0067730914
232	0x3e325731	0.17416073
233	0xbca259d6	-0.019818228
234	0x3e60f75f	0.21969365
235	0xbe2748c7	-0.16336356
236	0x3e4ae940	0.1981554
237	0x3e2a6e44	0.16643625
238	0xbe2336c3	-0.15938859
239	0x3d20f6bc	0.039297804
240	0x3d40c60e	0.04706388
241	0xbd9b16d1	-0.07572711
242	0x3ea23807	0.3168337
243	0x3dd9b240	0.106297016
244	0x3e1926f3	0.14956264
245	0x3e3b8e95	0.1831611
246	0xbe43e082	-0.19128612
247	0xbea9b9a5	-0.33149448
248	0x3e11516f	0.1419122
249	0x3c3fa3ee	0.011696799
250	0x3dd00d4b	0.101587854
251	0x3eb01949	0.3439429
252	0xbe96ba01	-0.29438785
253	0x3e350ae1	0.17679931
254	0xbe861f7e	-0.26195902
255	0xbd9dc144	-0.07702878

attn.attn_h.bias f4 [150]
0	0xbebba2cc	-0.36647642
1	0x3dfab130	0.12240827
2	0x3eacae71	0.33726838
3	0xbe6f2e82	-0.23357585
4	0x3e7317bb	0.23739521
5	0xbe2396eb	-0.1597554
6	0x3e62835a	0.22120419
7	0xbe524ce2	-0.20537141
8	0xbe64e9a0	-0.22354746
9	0xbc175492	-0.009236472
10	0xbec20541	-0.37894633
11	0xbe0eaf74	-0.13934118
12	0xbdbca535	-0.09211198
13	0xbe7780ea	-0.2417027
14	0x3ea83e4b	0.32860026
15	0x3d65179e	0.055930726
16	0xbe8fcdb8	-0.28086638
17	0xbeb927fd	-0.3616332
18	0xbd8070cc	-0.06271514
19	0x3e6c739f	0.23090981
20	0xbcd91220	-0.0264979
21	0x3dc13756	0.094343826
22	0x3cc4173e	0.023936864
23	0x3c9e58b9	0.019329416
24	0xbeaead91	-0.34116796
25	0xbead9963	-0.33906087
26	0xbf4806d7	-0.78135437
27	0x3eb6579a	0.3561371
28	0xbb2117e7	-0.0024580897
29	0x3ec7cf99	0.39025572
30	0xbe0a075e	-0.13479373
31	0xbeaf5481	-0.3424416
32	0xbccaa856	-0.024738472
33	0xbf0682df	-0.52543443
34	0x3db03124	0.08603123
35	0xbe9f9a5a	-0.31172448
36	0x3e284dad	0.16435881
37	0xbf6054ab	-0.87629193
38	0xbee9ea7c	-0.4568671
39	0xbdc96077	-0.09832852
40	0x3e7976ae	0.24361679
41	0x3da71eb8	0.08160156
42	0x3d3d8a35	0.046274383
43	0x3d14ee4e	0.036360078
44	0x3df32eee	0.118741855
45	0xbe8c794f	-0.274363
46	0x3ea6b74c	0.3256172
47	0xbd84a7bd	-0.06477306
48	0x3ea25ebc	0.31712902
49	0xbc7724be	-0.015084444
50	0xbeccef48	-0.40026307
51	0xbeec21b9	-0.46119478
52	0x3d5d9388	0.054095775
53	0xbeb6b1d7	-0.35682556
54	0x3d5eb154	0.054368332
55	0xbe7fd3bb	-0.24983113
56	0xbea0fdc3	-0.31443605
57	0x3ebbfc7c	0.36716068
58	0x3f03c8f0	0.5147848
59	0x3e78895f	0.24271153
60	0xbec00eb4	-0.37511218
61	0xbdc834af	-0.097756736
62	0x3ddd00c2	0.1079116
63	0xbe72c8f3	-0.23709469
64	0x3e013cfb	0.12620918
65	0xbeb2aa83	-0.34895715
66	0x3b2723b3	0.0025503456
67	0xbe450d84	-0.19243437
68	0xbdde1d2d	-0.108454086
69	0x3dd2b3f6	0.10288231
70	0xbe084174	-0.13306218
71	0xbdd1935d	-0.102331854
72	0x3e38d4f8	0.18049991
73	0x3e39b034	0.18133622
74	0x3c8d0047	0.017212046
75	0x3d8567ac	0.065139145
76	0x3e0d8b62	0.13822702
77	0x3cfa3bde	0.030546125
78	0xbe1dc171	-0.15405823
79	0xbee104c0	-0.43948936
80	0xbe782be9	-0.242355
81	0xbd555cda	-0.052090503
82	0x3d1e1044	0.03858973
83	0xbe83d44b	-0.25747904
84	0xbe0acd6d	-0.13554926
85	0xbe870e4e	-0.263781
86	0xbe1c68e6	-0.1527439
87	0xbee2a0de	-0.44263357
88	0x3e4cae31	0.19988324
89	0x3e888cf1	0.2667003
90	0xbe9a7ef4	-0.30174983
91	0xbf1c9603	-0.611664
92	0xbece7f74	-0.40331614
93	0xbebb51a4	-0.36585724
94	0xbcad79d7	-0.021176262
95	0x3e856c50	0.26059198
96	0xbe76f6a4	-0.24117523
97	0x3f1607e1	0.5860577
98	0xbdf2ac72	-0.118492976
99	0xbe431b43	-0.19053368
100	0xbd47e4d1	-0.0488022
101	0x3d9c176d	0.076216556
102	0xbecf5b95	-0.4049956
103	0xbec88923	-0.39167127
104	0xbdc0eb87	-0.09419923
105	0x3e5363db	0.2064356
106	0x3e37e2f3	0.17957668
107	0xbe7234cf	-0.23652957
108	0x3ea602d2	0.32424027
109	0xbe8758a5	-0.26434818
110	0x3e57c6ee	0.2107198
111	0xbd836537	-0.064157896
112	0x3eec2a73	0.46126136
113	0x3e817288	0.25282693
114	0x3ea303d8	0.3183887
115	0xbea48f04	-0.32140362
116	0xbbbfff31	-0.0058592786
117	0x3e871560	0.26383495
118	0x3ea8d583	0.32975397
119	0x3ef40786	0.4766199
120	0xbe92b621	-0.28654578
121	0xbe3fcfa9	-0.1873156
122	0xbd836128	-0.064150155
123	0xbe6b9b5d	-0.23008485
124	0xbebec3be	-0.37258714
125	0x3c6bbc44	0.014388148
126	0x3da65c5b	0.08123084
127	0x3e92ddb0	0.2868476
128	0xbddd99a0	-0.10820317
129	0xbed48fb7	-0.41515896
130	0xbe2e8c95	-0.17045815
131	0x3e2fcdd2	0.17168358
132	0xbd427668	-0.047476202
133	0x3e01187c	0.12606996
134	0xbe1ab584	-0.15108305
135	0x3df605b6	0.12012808
136	0x3f0ffd73	0.5624611
137	0xbea74c1b	-0.3267525
138	0x3e523f36	0.20531926
139	0xbd989e8e	-0.07452117
140	0xbbaf6ba5	-0.0053534084
141	0x3eb59ad8	0.354697
142	0x3e8e28f5	0.27765623
143	0x3dad726e	0.08469091
144	0xbe583eca	-0.21117702
145	0x3ed3ecc1	0.41391566
146	0xbeb18fc7	-0.34680006
147	0x3dd1415c	0.102175444
148	0xbe8abc44	-0.2709676
149	0xbe141ae8	-0.14463389

attn.attn_energy.weight f4 [1, 150]
0	0x3e3449ca	0.17606273
1	0x3de68f8a	0.11257847
2	0x3e19d372	0.15022066
3	0xbd0ea819	-0.03482828
4	0xb9ec1b01	-0.00045033547
5	0xbccd8262	-0.025086585
6	0x3d7b6a43	0.061380636
7	0xb9949249	-0.0002833775
8	0xbc4a56d8	-0.012349807
9	0x3b708975	0.0036703025
10	0xbc297cb8	-0.010344677
11	0xbcc54f65	-0.02408571
12	0xbc33faca	-0.010985086
13	0xbc71c6fe	-0.014756916
14	0xbd89a9b9	-0.06721825
15	0xbc7641ad	-0.015030307
16	0x3d8905e6	0.06690578
17	0x3df7aa76	0.1209306
18	0x3b7a601d	0.003820426
19	0x3cac42d5	0.021027962
20	0x3c3de1a7	0.011589444
21	0xbe20815f	-0.15674351
22	0x3b2445ef	0.0025066098
23	0x3de5619d	0.11200259
24	0xbdac0398	-0.08399123
25	0x3dcaa9e5	0.09895686
26	0x3e5eca97	0.2175697
27	0xbce9ab6e	-0.028524127
28	0xbbc60a11	-0.0060436805
29	0xbc0185c5	-0.007905428
30	0x3cb7071b	0.022342255
31	0xbdc957d8	-0.09831208
32	0x3c50c1b9	0.0127415
33	0xbe7f59ed	-0.24936648
34	0x3b15abe4	0.002283805
35	0x3d783f34	0.06060715
36	0xbc8b2f2b	-0.016990265
37	0x3e766ca6	0.24064884
38	0xbe1c39b6	-0.1525639
39	0xbd1f3cc3	-0.038876306
40	0x3cf55232	0.02994642
41	0xbe0a8797	-0.13528286
42	0x3b3e1f07	0.0029010193
43	0xbd40089d	-0.046883214
44	0xbc98595f	-0.018597303
45	0xbbdc5df7	-0.0067250687
46	0x3b11ed50	0.0022266693
47	0xbbd3dcba	-0.0064655216
48	0x3dfd0f3f	0.123564236
49	0x3e15f623	0.14644675
50	0xbd9dcecf	-0.07705461
51	0x3db0d8c7	0.08635097
52	0xbd5b9748	-0.05361107
53	0x3de09a7b	0.10966965
54	0xbc1fc88e	-0.009752406
55	0xbca617bc	-0.02027499
56	0xbd39f82e	-0.0454027
57	0x3cab39a3	0.020901507
58	0xbda6aac9	-0.081380434
59	0x3cbfbfb5	0.023406843
60	0xbd36959a	-0.044576265
61	0x3d383e5e	0.044981353
62	0xbe129786	-0.14315614
63	0xbcc457a0	-0.023967564
64	0x3d17fab5	0.037104327
65	0xbd5878a7	-0.052849438
66	0xbd367a64	-0.044550315
67	0xbe3152e7	-0.17316781
68	0xbc3eaa72	-0.011637317
69	0x3d23d053	0.039993595
70	0x3d6a7a28	0.057245404
71	0xbe182663	-0.14858393
72	0x3cd4da48	0.02598299
73	0x3dd23e1a	0.10265751
74	0xbc86a657	-0.016436739
75	0xbb2ffff5	-0.0026855443
76	0xbda5fd51	-0.08104957
77	0x3bce1596	0.0062891943
78	0xbbb362b6	-0.0054744137
79	0x3bfbe10f	0.007686741
80	0x3cf401a8	0.029785946
81	0xbd6e2b11	-0.05814654
82	0x3d1819fe	0.037134163
83	0xbdb41649	-0.08793313
84	0x3d0b39fc	0.033990845
85	0x3be4a836	0.00697806
86	0x3ce4c15a	0.027924228
87	0xbdcef5d5	-0.101054825
88	0x3ccadaa3	0.024762457
89	0x3d15b1fa	0.036546685
90	0xbe17d9ac	-0.14829129
91	0x3e58cb26	0.21171245
92	0xbdb8c159	-0.09021253
93	0xbdce7c8d	-0.1008235
94	0xbddcb532	-0.10776748
95	0x3caaa272	0.020829413
96	0x3daa0541	0.08301783
97	0x3e1027b1	0.14077641
98	0xbdef23c2	-0.11676742
99	0x3bb225fc	0.005436657
100	0x3d984ec9	0.07436902
101	0xbb8daf5c	-0.004323883
102	0xbe2f3723	-0.17110877
103	0x3d02c439	0.031925414
104	0x3a6a88d0	0.0008946778
105	0x3cf20173	0.029541707
106	0x3d11520f	0.035478648
107	0xbc5f8f10	-0.013644949
108	0x3d8161b5	0.06317464
109	0xbd8f4063	-0.06994703
110	0x3d6b4e43	0.057447683
111	0xbc09aae0	-0.008402556
112	0x3d660b4c	0.056163117
113	0x3d3b3765	0.045707125
114	0x3df0bdb1	0.11754931
115	0x3cfb73c9	0.03069486
116	0x3d44851b	0.0479785
117	0x3e0c8ea6	0.13726291
118	0x3c1b324a	0.009472439
119	0x3deb31e9	0.11484129
120	0x3d81e6d5	0.06342856
121	0xbd749164	-0.059708968
122	0xbc3d9801	-0.011571885
123	0xbd4c0006	-0.04980471
124	0x3de1747e	0.11008547
125	0xbde21d35	-0.11040727
126	0xbe1ee909	-0.15518583
127	0x3dfe7d6d	0.12426267
128	0x3d6e926c	0.058245108
129	0x3da5136e	0.080603465
130	0xbda47208	-0.08029562
131	0xbdecf35b	-0.11569854
132	0x3c12f7f5	0.00897025
133	0xbc3a5f54	-0.011375267
134	0xbc7dc109	-0.015487918
135	0xbdca0d8c	-0.09865865
136	0xbea332d6	-0.31874722
137	0x3e03aecd	0.1285965
138	0x3e0c89f0	0.13724494
139	0x3c2fece6	0.010737633
140	0x3d00e3d9	0.031467292
141	0x3d026faf	0.03184479
142	0x3da2ab23	0.07942798
143	0xbc626638	-0.013818316
144	0x3c0fa29b	0.0087667955
145	0xbe489871	-0.19589402
146	0xbd1a610f	-0.03769022
147	0x3d21f7d2	0.03954298
148	0xbd9b78d4	-0.075914055
149	0x3db4b11b	0.08822843

gru.weight_ih f4 [450, 153]
0	0x3cc10b3b	0.023564925
1	0x3c7fc64f	0.015611245
2	0xbc554300	-0.013016462
3	0x3d54eb3d	0.051982153
4	0xbd121108	-0.035660774
5	0xbc3404af	-0.010987445
6	0x3e87e25b	0.26539883
7	0xbdd117e0	-0.10209632
8	0xbe424b3d	-0.18974014
9	0x3dbfced4	0.09365621
10	0x3e4be670	0.19912124
11	0x3e8a7f51	0.2705026
12	0x3f0caf6a	0.5495516
13	0x3e320ae7	0.17386971
14	0xbebd6a5b	-0.36995205
15	0x3e9b3ddb	0.3032063
16	0xbe7c69aa	-0.24649683
17	0xbd1db820	-0.038505673
18	0x3e89a54b	0.2688392
19	0xbdf0bfe3	-0.117553495
20	0x3eaa124f	0.33217093
21	0x3e4c8d0e	0.19975683
22	0xbc9e91f6	-0.019356709
23	0xbe60c886	-0.21951494
24	0x3c47a35e	0.012184946
25	0x3dbcb452	0.09214081
26	0x3e443f5c	0.19164795
27	0x3e44fa23	0.19236045
28	0x3ebbb37b	0.3666037
29	0x3e02af59	0.12762202
30	0xbdc3b0a0	-0.09555173
31	0x3e3f0bc3	0.1865683
32	0xbeb410b3	-0.3516899
33	0x3e601844	0.21884257
34	0x3db2efee	0.08737169
35	0xbda84085	-0.08215431
36	0x3e86cbb4	0.26327288
37	0xbb9a263a	-0.004704264
38	0x3ea7f2ab	0.32802328
39	0x3e12dadd	0.14341302
40	0x3e09556d	0.13411494
41	0xbeb4a439	-0.35281542
42	0xbc21dba7	-0.009879029
43	0xbe64753a	-0.22310343
44	0x3ec49055	0.38391367
45	0x3e6eb127	0.23309766
46	0x3ef80adc	0.48445785
47	0xbdb1e329	-0.086859055
48	0xbe852d01	-0.26010898
49	0xbd9cd366	-0.076575086
50	0x3e7f892f	0.24954675
51	0xbc7b20e5	-0.015327667
52	0xbd590fa4	-0.05299343
53	0xbdc97d32	-0.09838332
54	0x3f0d87f6	0.55285585
55	0x3c87ae22	0.016562525
56	0x3ca156f6	0.019694787
57	0x3eab1e96	0.33421773
58	0x3daa4dc5	0.083156146
59	0x3e813d27	0.25241968
60	0xbcdd9ba4	-0.027051754
61	0x3d25ef00	0.04051113
62	0x3ebe37a1	0.37151816
63	0xbea110f3	-0.31458244
64	0x3e266e66	0.16253051
65	0x3df99ddf	0.12188315
66	0x3c354851	0.011064605
67	0x3e5bf684	0.21480757
68	0xbe435974	-0.19077092
69	0xbdbb2ed8	-0.09139794
70	0xbc1f7220	-0.009731799
71	0xbceb86d7	-0.02875082
72	0x3d37ecee	0.044903688
73	0x3db06153	0.08612313
74	0x3e4c4d6c	0.19951409
75	0x3e2d08f5	0.16897948
76	0xbd90c2ed	-0.07068429
77	0x3e8122ae	0.2522177
78	0xbe84470f	-0.25835463
79	0x3e66cab3	0.22538261
80	0x3e48f968	0.19626391
81	0xbdd79e64	-0.105282575
82	0x3d189ded	0.037259985
83	0x3d106de9	0.03526107
84	0x3dfc99b1	0.12334002
85	0xbe1abb99	-0.15110625
86	0x3f0e0059	0.5546928
87	0xbe8ea1d1	-0.2785783
88	0xbddae4bf	-0.10688161
89	0x3ceb5a46	0.02872957
90	0xbdc3eae4	-0.09566286
91	0xbd9f7775	-0.077864565
92	0x3e5c0f4b	0.21490209
93	0xbba1dbe3	-0.0049395426
94	0x3ed3e219	0.41383436
95	0x3e64f6dc	0.22359794
96	0x3e157c4f	0.14598201
97	0xbd719f07	-0.05898955
98	0xbd662293	-0.056185316
99	0xbd3434ce	-0.04399567
100	0x3d9c2bd2	0.076255456
101	0xbe322363	-0.17396311
102	0x3bd9e551	0.006649651
103	0x3e4e8529	0.20167984
104	0xbdca6cdf	-0.09884047
105	0x3db3157b	0.087443314
106	0xbd814062	-0.06311108
107	0xbc6f536e	-0.0146072935
108	0xbe3c82c8	-0.18409264
109	0xbe81fc52	-0.25387818
110	0x3cea3c46	0.028593194
111	0x3decfbf9	0.115714975
112	0x3eb74789	0.35796764
113	0x3ebb9a3d	0.36641112
114	0x3d95978d	0.07304297
115	0x3e761831	0.24032666
116	0xbe81b370	-0.25332212
117	0xbeb37eea	-0.35057765
118	0x3d508df7	0.05091664
119	0x3e9df59e	0.30851454
120	0x3ce755f4	0.028239228
121	0x3ea71dbd	0.32639876
122	0xbe575bdc	-0.21031135
123	0xbdbac415	-0.09119431
124	0x3c02b5e7	0.007977939
125	0x3cb877ae	0.022518005
126	0x3e727bc1	0.23680021
127	0xbdffcab7	-0.12489837
128	0x3eba9ef7	0.36449406
129	0x3e030e36	0.1279839
130	0xbe6bcd3b	-0.23027508
131	0x3d6592a2	0.056048043
132	0x3e21534b	0.1575443
133	0xbb222363	-0.002474033
134	0xbd97e8fb	-0.074174844
135	0x3ecbfbbc	0.39840496
136	0x3d9ec923	0.077532075
137	0x3cc46471	0.023973675
138	0x3dd62865	0.104569234
139	0x3d555f2a	0.05209271
140	0xbcc11bc6	-0.023572814
141	0x3e0a88d6	0.13528761
142	0xbe6ea984	-0.23306853
143	0xbed9f063	-0.42566213
144	0xbe8af309	-0.27138546
145	0x3c11b56a	0.00889335
146	0x3e442fda	0.19158879
147	0x3e1ef02a	0.15521303
148	0x3d8dcafa	0.0692348
149	0x3e9993dd	0.29995623
150	0x3e7a5abb	0.24448673
151	0x3ba329e5	0.0049793595
152	0x3e1a97d0	0.15096974
153	0xbe7954f4	-0.24348813
154	0xbee72b9d	-0.45150462
155	0x3dc345b6	0.09534781
156	0xbd362fc9	-0.044479165
157	0x3c8022f0	0.01564166
158	0x3e509e64	0.20372921
159	0x3e8fbb9a	0.28072816
160	0x3b837ba8	0.0040125437
161	0x3e0a8b7d	0.13529773
162	0x3e41cd24	0.18925911
163	0xbd289cdc	-0.041165218
164	0x3e9af23e	0.3026294
165	0x3e3b07f2	0.1826475
166	0xbe1b69b7	-0.15177046
167	0x3de74464	0.11292341
168	0x3cf2cc96	0.02963857
169	0xbbdf2d6d	-0.006810835
170	0x3d97f684	0.07420066
171	0x3d2fe1f6	0.042940103
172	0x3ccabb8e	0.024747636
173	0xbcf9386d	-0.030422414
174	0xbe18ffbb	-0.14941303
175	0x3e23d230	0.15998149
176	0xbdea0b5a	-0.114279464
177	0xbc34c344	-0.011032883
178	0x3e216d0c	0.15764254
179	0xbd1d5972	-0.03841538
180	0x3dec92c2	0.11551429
181	0xbe777ed0	-0.24169469
182	0xbddc1c8b	-0.10747632
183	0x3dac8c95	0.084252514
184	0xbdf9e67b	-0.12202164
185	0xbddbd67d	-0.1073427
186	0x3de72239	0.11285824
187	0xbc1cd257	-0.009571633
188	0xbe0791f9	-0.13239278
189	0x3d9ed09d	0.077546336
190	0x3e105fb9	0.14099015
191	0xbe08000b	-0.13281266
192	0x3dc7b360	0.0975101
193	0x3e95c4d2	0.29251724
194	0x3deced9f	0.1156876
195	0x3db4cc24	0.08827999
196	0x3d08a383	0.033359062
197	0x3e4658ab	0.19369762
198	0x3e01de02	0.12682346
199	0x3e90776e	0.28216118
200	0xbcf6b83d	-0.030117149
201	0xbdc4a876	-0.09602444
202	0xbcfeec34	-0.03111849
203	0x3e1ce6ca	0.15322414
204	0x3dddd1dd	0.10831044
205	0x3deead4f	0.1165415
206	0x3e49159c	0.1963715
207	0x3d4a0cee	0.049328737
208	0x3cdb466b	0.026766976
209	0xbc8264f5	-0.01591728
210	0x3bda2c95	0.0066581466
211	0x3df50af5	0.119649805
212	0x3e7228e6	0.23648414
213	0x3e41289c	0.18863147
214	0x3d90bbf2	0.07067098
215	0x3d4e7a75	0.050409753
216	0x3dcaa9d1	0.09895671
217	0xbe23fe5a	-0.16014996
218	0xbe498e10	-0.19683099
219	0x3c95f892	0.018307004
220	0xbdc382ee	-0.09546457
221	0x3db22aad	0.08699546
222	0x3e718c95	0.23588784
223	0x3d8c1097	0.06839102
224	0x3eac1947	0.33613035
225	0x3d084c37	0.03327581
226	0xbe6152d7	-0.22004257
227	0x3d776384	0.06039764
228	0x3ee9ee89	0.456898
229	0xbb4f614f	-0.0031643694
230	0x3c88a37a	0.016679514
231	0x3e2a5bbd	0.16636558
232	0xbd00f275	-0.031481225
233	0x3cb5c538	0.022188768
234	0x3ecd2e5e	0.40074438
235	0xbe05921e	-0.1304402
236	0xbd00a29c	-0.031405076
237	0xbe1e9c75	-0.15489371
238	0x3d8bd16e	0.06827055
239	0xbe61f467	-0.22065888
240	0x3d4faa6b	0.050699633
241	0x3dc62f25	0.09676961
242	0x3d462363	0.04837359
243	0x3e3daccd	0.1852295
244	0x3d89c807	0.06727605
245	0x3e84e851	0.25958493
246	0xbcebac87	-0.02876879
247	0xbdfeb19d	-0.12436221
248	0xbd89bb20	-0.067251444
249	0x3ddcfdf9	0.10790629
250	0x3e315fea	0.17321745
251	0x3e1d9ba6	0.15391406
252	0xbdec9fac	-0.115538925
253	0x3e147427	0.14497434
254	0xbdc60205	-0.09668354
255	0x3ddb9a73	0.10722818

gru.weight_hh f4 [450, 150]
0	0x3e99a77f	0.30010602
1	0x3e78dfdb	0.24304144
2	0xbdd7fd56	-0.10546367
3	0xbeaf1644	-0.34196675
4	0x3da57c24	0.080803186
5	0x3d26795e	0.04064309
6	0xbc887971	-0.01665947
7	0x3eb18cb3	0.34677657
8	0xbef85107	-0.4849932
9	0xbd2ec6dd	-0.04267012
10	0x3ec35a44	0.38154805
11	0x3e79057c	0.24318498
12	0xbc8596c8	-0.01630725
13	0xbe8c905d	-0.2745389
14	0x3df745c8	0.120738566
15	0xbd9b277a	-0.07575889
16	0x3dc25d32	0.09490432
17	0xbe9ae9b2	-0.3025642
18	0x3dc4469d	0.09583781
19	0x3e24fde5	0.16112478
20	0xbedd343f	-0.43203923
21	0x3e8fbbde	0.2807302
22	0x3ef604cb	0.48050532
23	0xbdea70e1	-0.11447311
24	0xbdf27781	-0.118392
25	0xbe063acb	-0.13108365
26	0x3dc034f5	0.09385101
27	0xbe315914	-0.17319137
28	0x3e87dbe0	0.2653494
29	0x3ea4aea7	0.321645
30	0xbd151b61	-0.036403064
31	0x3eba0fa4	0.36340058
32	0x3d0c4959	0.034249637
33	0xbf621d68	-0.8832612
34	0x3e8b5616	0.27214116
35	0xbe82decd	-0.25560609
36	0x3e3a5a8d	0.18198605
37	0xbdeee773	-0.11665239
38	0x3bffbf54	0.0078047905
39	0xbdf6c0a4	-0.12048462
40	0x3deddccf	0.116143815
41	0x3d638cc3	0.055554163
42	0x3d4643d5	0.048404533
43	0xbef0b086	-0.47009677
44	0xbcc366d2	-0.02385274
45	0xbe97e2c7	-0.29665205
46	0xbdd71148	-0.10501343
47	0x3e8e746b	0.27823195
48	0xbdbfc966	-0.093645856
49	0x3e189fba	0.14904681
50	0xbe0efbcb	-0.13963239
51	0x3d49395e	0.049126975
52	0xbe01e209	-0.12683882
53	0xbea1dd02	-0.31613928
54	0x3ec68a72	0.387775
55	0x3ee0a896	0.4387862
56	0xbe62a305	-0.221325
57	0xbe83c07e	-0.25732797
58	0x3e9f4c39	0.3111284
59	0x3df5bb61	0.1199863
60	0xbd921347	-0.07132583
61	0x3ed5b505	0.4173967
62	0x3ea56b35	0.32308355
63	0xbe701590	-0.23445725
64	0xbe50a2e0	-0.20374632
65	0x3d981044	0.074249774
66	0x3df6bc52	0.12047638
67	0x3e40696a	0.18790212
68	0xbe692c6e	-0.22770855
69	0x3e676a05	0.22599037
70	0x3ec72cc9	0.38901356
71	0x3d94d825	0.07267789
72	0x3eb99909	0.3624957
73	0x3e210976	0.15726265
74	0xbe9c6ab8	-0.3055017
75	0x3ebef284	0.372944
76	0xbe5ea54a	-0.2174274
77	0x3c6dd1b3	0.014515328
78	0xbd2cb924	-0.04216875
79	0xbec26140	-0.3796482
80	0x3e96103c	0.2930926
81	0xbd35fb6d	-0.04442923
82	0x3d671052	0.05641205
83	0x3e9984fe	0.29984277
84	0xbd572dc0	-0.052533865
85	0x3da23f33	0.079222105
86	0x3ea163f3	0.31521568
87	0xbef38bd2	-0.47567612
88	0xbe2a1793	-0.16610555
89	0xbe8879de	-0.26655477
90	0x3efed916	0.49774998
91	0xbe905585	-0.28190246
92	0xbe98e04d	-0.29858628
93	0x3e5425df	0.20717572
94	0xbe4ce8a2	-0.20010617
95	0x3caad914	0.020855464
96	0x3d8f46c5	0.0699592
97	0xbeca5a10	-0.39521837
98	0xbf1b0f1f	-0.6056995
99	0x3e507d57	0.20360313
100	0x3e8e5914	0.27802336
101	0x3d97c4a9	0.07410557
102	0xbee75149	-0.45179203
103	0x3d8d14e1	0.06888748
104	0xbe714b5f	-0.23563908
105	0xbe486afb	-0.1957206
106	0xbf0a40a0	-0.5400486
107	0x3e79edc4	0.24407107
108	0x3ef481db	0.47755322
109	0xbd473567	-0.048634913
110	0xbe4ba6b7	-0.19887815
111	0x3d196a16	0.037454687
112	0xbe7a9d22	-0.24474004
113	0xbeb0cc5d	-0.34530917
114	0xbba53bb1	-0.005042516
115	0xbde8d315	-0.11368386
116	0xbe7054f1	-0.23469903
117	0x3e2d3c11	0.16917445
118	0x3ef3b9c0	0.47602654
119	0x3e099646	0.13436231
120	0xbe667c8a	-0.22508445
121	0x3d2d520b	0.04231457
122	0x3defed49	0.117151804
123	0x3e30a554	0.17250568
124	0xbec2d0b6	-0.3804986
125	0x3eb32043	0.3498555
126	0x3e334723	0.17507605
127	0xbe68c851	-0.22732665
128	0xbdac9c32	-0.084282294
129	0x3e4c2024	0.19934136
130	0xbea47939	-0.32123736
131	0x3d9d1c0b	0.076713644
132	0xbda592ee	-0.08084665
133	0x3e92baa0	0.2865801
134	0xbe9a4e34	-0.3013779
135	0x3e4c2d37	0.19939123
136	0x3e60d781	0.21957208
137	0xbe92d831	-0.28680566
138	0xbdd1a65f	-0.10236811
139	0x3d92c304	0.071661025
140	0x3c27b43e	0.010235844
141	0x3de5e089	0.11224467
142	0x3e7e8d9a	0.24858704
143	0x3e453a54	0.19260532
144	0xbe585c28	-0.21128905
145	0xbe81d1ae	-0.25355285
146	0xbde7e8f2	-0.11323728
147	0x3f038b44	0.5138438
148	0xbe2302c0	-0.15919018
149	0xbd3f4071	-0.046692315
150	0xbe5d70d2	-0.21625069
151	0xbdc1e250	-0.09466994
152	0xbe242a17	-0.16031681
153	0xbaf01486	-0.0018316663
154	0x3d6e36b6	0.058157645
155	0x3db6cca3	0.0892575
156	0x3e5932b5	0.2121075
157	0x3e15c8b3	0.14627342
158	0x3e0e5801	0.13900758
159	0x3df589d0	0.11989176
160	0x3e3bba50	0.18332791
161	0xbe658b9b	-0.22416537
162	0x3e09c947	0.13455687
163	0xbd2d40aa	-0.042297997
164	0x3e1c240b	0.15248124
165	0xbe339a01	-0.17539217
166	0xbe093645	-0.13399608
167	0xbe496ba0	-0.19669962
168	0x3e6f8540	0.23390675
169	0xbe6d8f79	-0.23199262
170	0xbdbce1a2	-0.092227235
171	0xbdde83b7	-0.10864966
172	0x3db26acc	0.08711776
173	0x3e9e2f33	0.30895385
174	0x3dffb8b7	0.124864034
175	0xbe7b9f3c	-0.24572462
176	0x3e8c3c70	0.2738986
177	0x3e1a04e8	0.15040934
178	0xbe391114	-0.18072921
179	0xbeaac0e8	-0.333503
180	0x3d31e701	0.043433193
181	0xbe5e1ae1	-0.21689941
182	0x3bb916de	0.005648478
183	0xbea8460d	-0.32865945
184	0xbdab93fd	-0.08377836
185	0x3e90f0b0	0.2830863
186	0xbe8e8127	-0.2783291
187	0xbe869950	-0.26288843
188	0xbd803343	-0.062597774
189	0xbeedfae1	-0.46480468
190	0x3d4fd36a	0.05073873
191	0xbda1ebb0	-0.07906282
192	0xbdea96fb	-0.114545785
193	0xbcd6c236	-0.026215654
194	0xbcead688	-0.02866675
195	0x3e51f2d0	0.20502782
196	0xbe8535b0	-0.26017523
197	0x3e64b1d9	0.22333468
198	0xbd962478	-0.073311746
199	0xbd6ad4c4	-0.057331815
200	0xbe6de845	-0.23233135
201	0xbe7c7715	-0.24654801
202	0x3e2cca6a	0.1687409
203	0xbe228283	-0.15870099
204	0x3e1bec86	0.15226945
205	0xbe502dc5	-0.2032996
206	0xbd8f683d	-0.07002304
207	0x3bfe14b3	0.0077539324
208	0xbe5daa48	-0.21646988
209	0xbcf5a1d1	-0.029984387
210	0x3f0ebaa9	0.5575357
211	0x3e39c230	0.18140483
212	0x3e5125bc	0.20424551
213	0xbe9d8785	-0.30767456
214	0xbc8540db	-0.016266277
215	0xbe82e695	-0.25566545
216	0xbbcb701e	-0.006208434
217	0x3e804d7d	0.2505912
218	0x3d0ac3d7	0.033878174
219	0xbe872f12	-0.264031
220	0xbe2e751b	-0.1703686
221	0xbdc2861e	-0.09498237
222	0xbdd304c6	-0.10303645
223	0xbe0ac76d	-0.13552637
224	0xbc1a34fa	-0.009412045
225	0x3ec47018	0.3836677
226	0xbe9e53ef	-0.3092341
227	0x3acdee80	0.0015711337
228	0xbdfd043e	-0.12354325
229	0xbddcb728	-0.10777122
230	0xbe22acdb	-0.15886252
231	0x3eab270f	0.33428237
232	0xbe457f42	-0.19286826
233	0xbe1d85e4	-0.15383106
234	0xbd91ddc4	-0.071223766
235	0xbd0aa959	-0.03385291
236	0xbe9cd3f4	-0.30630457
237	0xbdf9f554	-0.12204996
238	0x3cab5d65	0.020918557
239	0x3f28dfd3	0.6596653
240	0x3d8e8c5c	0.06960365
241	0x3e9f5497	0.31119224
242	0xbcbb62a2	-0.02287418
243	0x3e86000a	0.26171905
244	0x3d2128b5	0.039345462
245	0xbded9610	-0.11600888
246	0xbd3ba18e	-0.045808367
247	0xbeb41668	-0.35173345
248	0x3e52f743	0.20602135
249	0x3e482a7a	0.19547454
250	0x3e29f4b4	0.16597253
251	0xbdb2a736	-0.08723299
252	0x3da2e888	0.07954508
253	0xbe63e324	-0.22254616
254	0xbe2bdda2	-0.16783765
255	0x3d5be9df	0.053689834

gru.bias_ih f4 [450]
0	0x3e0c63c1	0.13709928
1	0x3e4cb906	0.19992456
2	0x3e89ed9e	0.269391
3	0x3e2f7cb7	0.17137419
4	0x3e470b6a	0.19437948
5	0x3e223eea	0.15844312
6	0x3eb7dde3	0.35911474
7	0x3e3a3f63	0.18188243
8	0x3df6161f	0.12015938
9	0x3ed7c074	0.42139018
10	0x3e29451b	0.16530268
11	0x3ed8aa25	0.4231731
12	0x3d4c4d7e	0.04987859
13	0x3e6d50e1	0.23175384
14	0x3e8b0589	0.2715266
15	0x3ec29ccf	0.3801026
16	0x3e61d3d7	0.22053467
17	0x3ef7b9e8	0.48384023
18	0x3e106f37	0.14104925
19	0x3ecce51a	0.4001854
20	0x3de7c022	0.11315943
21	0x3eca1891	0.39471868
22	0x3ddbdd58	0.10735577
23	0x3dd9f362	0.10642125
24	0x3e0fe5a5	0.14052446
25	0x3db7626e	0.08954321
26	0x3e1f7abd	0.15574165
27	0x3db83766	0.089949414
28	0x3ea578e9	0.3231881
29	0x3dfc0522	0.123056665
30	0x3dcfe7a8	0.10151607
31	0x3e9eb97c	0.31000888
32	0x3ef4af14	0.47789824
33	0x3e948313	0.29006252
34	0x3bc2f4a8	0.0059495755
35	0x3c389faf	0.01126854
36	0x3e154d4f	0.14580272
37	0x3ebb2395	0.36550584
38	0x3e809e88	0.2512095
39	0x3ea342a6	0.31886786
40	0x3e80ac54	0.25131476
41	0x3bd5a499	0.0065198657
42	0x3e2aa374	0.16663915
43	0x3c3aa079	0.011390799
44	0x3e983fb6	0.29736108
45	0x3eb86efd	0.36022177
46	0x3e2706c8	0.1631118
47	0xbc625e4f	-0.01381643
48	0x3da04f60	0.078276396
49	0x3db2fe26	0.08739881
50	0x3eb59279	0.35463312
51	0x3ec44aac	0.3833822
52	0x3ea01ef8	0.31273627
53	0x3ebcdf6e	0.36889213
54	0xbce8b779	-0.0284078
55	0x3d903f17	0.070432834
56	0x3deed518	0.11661738
57	0x3e8e3d84	0.27781308
58	0x3e21c51c	0.15797848
59	0x3ecf00c9	0.40430287
60	0x3e8028b3	0.2503105
61	0xbe8a2e36	-0.2698838
62	0x3e29cdf2	0.16582468
63	0x3c9ba0af	0.018997518
64	0x3e3fc8d8	0.1872896
65	0x3e865591	0.26237157
66	0x3cf175e7	0.029475166
67	0x3dd0fc0f	0.10204326
68	0x3e08b459	0.13350047
69	0x3c4102bf	0.01178044
70	0xbd15b250	-0.036547005
71	0x3e885af6	0.26631898
72	0x3e331f7b	0.17492478
73	0x3e493636	0.19649586
74	0x3dc8ad69	0.097987
75	0x3e6404fa	0.22267523
76	0x3ec14125	0.37745014
77	0x3e84fa17	0.25972053
78	0x3e1bd4d8	0.15217912
79	0xbc800176	-0.015625697
80	0x3e8cd55a	0.27506524
81	0x3e7dfaff	0.24802779
82	0x3d6aa3c5	0.05728509
83	0x3d36635b	0.044528347
84	0x3eee00f3	0.464851
85	0x3f167556	0.5877279
86	0x3e684a56	0.22684607
87	0x3ee90d15	0.45517793
88	0x3e2478aa	0.16061655
89	0x3dda5d5f	0.106623404
90	0x3da73c65	0.08165816
91	0x3e7ffaaf	0.24997972
92	0x3db274d7	0.08713692
93	0xbbd1fb9a	-0.006408167
94	0x3c7fcaed	0.015612346
95	0x3e704c09	0.23466505
96	0x3e994a9a	0.2993973
97	0x3e874719	0.2642143
98	0x3edeb8b5	0.43500295
99	0x3e41345c	0.1886763
100	0x3e05f136	0.13080296
101	0x3e8f8764	0.28032982
102	0x3e89c8fd	0.26911154
103	0x3eddfc81	0.43356708
104	0x3d1b439a	0.037906267
105	0x3eadd6f9	0.33953074
106	0x3e87c1a8	0.26514935
107	0x3e813ed6	0.25243253
108	0x3ef1b6ca	0.4720977
109	0x3da75cc8	0.081719935
110	0x3e5db909	0.21652617
111	0x3e19506a	0.14972082
112	0x3e9b9b47	0.30391905
113	0x3e1811b3	0.14850502
114	0x3d075af0	0.03304571
115	0x3e61d898	0.2205528
116	0x3ca746ce	0.020419504
117	0xbc58b4e8	-0.013226725
118	0x3daf4c67	0.085594945
119	0x3ed11004	0.4083253
120	0x3cec77f4	0.028865792
121	0x3e9c867a	0.30571347
122	0x3e4c3a6a	0.19944158
123	0x3e947030	0.28991842
124	0xbcac850d	-0.021059537
125	0x3d905ac6	0.07048564
126	0x3e44ebaf	0.19230531
127	0x3e85a31e	0.2610101
128	0x3ea5aa37	0.32356426
129	0x3d347597	0.044057455
130	0x3dde7830	0.10862768
131	0x3d925227	0.071445756
132	0x3e85f4be	0.26163286
133	0x3da22a4b	0.07918223
134	0x3dcabd59	0.098993964
135	0x3e28beac	0.16478986
136	0x3e80f503	0.2518693
137	0x3ee9b8c2	0.45648772
138	0x3e2ad482	0.16682628
139	0x3dccf479	0.10007567
140	0x3e0b02b5	0.13575251
141	0x3f0e1e15	0.5551465
142	0x3dd3132f	0.10306393
143	0x3e37905b	0.17926161
144	0x3e6df51a	0.2323803
145	0x3dbdba6a	0.09264071
146	0x3e43e016	0.19128451
147	0x3e7d8ff7	0.2476195
148	0x3eb4c401	0.3530579
149	0x3ddb553a	0.10709615
150	0x3d1f2f66	0.038863562
151	0x3e70bb69	0.23508991
152	0xbc9da5d3	-0.01924411
153	0x3d41d57f	0.047322746
154	0x3d3780a0	0.0448004
155	0x3e13e703	0.14443593
156	0x3e285516	0.16438708
157	0x3dfca111	0.123354085
158	0xbdde2f7a	-0.10848899
159	0xbf0426ca	-0.5162169
160	0x3ecb413f	0.39698216
161	0x3e6c7b0e	0.23093817
162	0x3e4b453b	0.19850628
163	0xbdec5f00	-0.11541557
164	0x3e55ea30	0.20890117
165	0x3e8ccdba	0.27500707
166	0x3d8136b9	0.06309266
167	0x3e989e41	0.29808238
168	0x3eeae04b	0.45874247
169	0x3e7cbb8c	0.24680918
170	0xbba4890b	-0.0050212196
171	0xbd0a042b	-0.03369538
172	0x3e6b69b2	0.22989538
173	0x3ea85f2a	0.32885104
174	0xbe1185ef	-0.14211248
175	0xbe0e94c5	-0.13923939
176	0x3df39b3a	0.118948415
177	0xbc8731e3	-0.01650328
178	0xbea76eea	-0.32701808
179	0x3ee9c61b	0.45658955
180	0x3f09c146	0.53810537
181	0x3dd29d93	0.10283961
182	0xbe193817	-0.14962803
183	0x3cb365a0	0.021899045
184	0x3e786888	0.24258626
185	0x3ea3fea9	0.32030228
186	0x3e04e268	0.12976992
187	0x3e8fee23	0.2811137
188	0x3e176fa9	0.14788689
189	0x3eb9062c	0.3613752
190	0x3e30fd61	0.17284156
191	0x3e91aa42	0.2845021
192	0xbd965466	-0.073403165
193	0xbdb03cae	-0.08605324
194	0x3e3f6491	0.18690707
195	0x3e119391	0.14216448
196	0x3de5bd9b	0.11217805
197	0x3e91fdf6	0.2851407
198	0x3ee660c9	0.44995716
199	0x3e1a7e53	0.15087251
200	0xbe9408fe	-0.2891311
201	0x3b2bcd10	0.0026214756
202	0x3f2f3beb	0.684508
203	0xbdd34ac1	-0.103169926
204	0x3e580189	0.21094336
205	0x3ee22aed	0.44173375
206	0x3e8bf040	0.27331734
207	0x3d8bbb05	0.068227805
208	0x3ec46fda	0.38366586
209	0xbd38d85e	-0.04512822
210	0xbd932f64	-0.071867734
211	0x3eadaeb5	0.33922353
212	0x3f4845d3	0.78231543
213	0xbe9b98e0	-0.30390072
214	0x3ecd7035	0.4012467
215	0x3ebba794	0.3665129
216	0x3e7cc090	0.24682832
217	0x3e9a1c21	0.30099586
218	0x3e5e064d	0.21682091
219	0x3e3a4d61	0.1819358
220	0x3f1c2f7c	0.61009955
221	0x3d36eda4	0.044660226
222	0xbdba6ecd	-0.09103165
223	0x3e5f64a7	0.2181574
224	0x3e1bc908	0.15213406
225	0x3f048db6	0.51778734
226	0x3e17ca4f	0.14823268
227	0x3e9e6c0c	0.30941808
228	0x3e630c8b	0.22172754
229	0x3e934e84	0.2877084
230	0x3e79d72a	0.24398485
231	0x3def1bc8	0.11675221
232	0x3eeb997d	0.4601554
233	0x3d9c711c	0.076387614
234	0xbe285d1c	-0.16441768
235	0x3eb4d99e	0.3532228
236	0x3d369ff3	0.044586133
237	0xbeaa72da	-0.3329075
238	0x3f168790	0.588006
239	0x3ecef906	0.40424365
240	0x3ebc5866	0.36786193
241	0x3dfebcf8	0.12438387
242	0x3ec7085b	0.38873562
243	0x3dcfbd2a	0.10143502
244	0x3d0e9d57	0.03481802
245	0x3db5f0db	0.0888383
246	0x3e887be2	0.26657015
247	0x3e13239a	0.1436905
248	0x3e5b0294	0.21387702
249	0xbe23e8ec	-0.16006821
250	0x3e3e1295	0.18561776
251	0x3dbb2e82	0.0913973
252	0x3e34374e	0.17599222
253	0x3ca2dfa1	0.019882025
254	0xbe53d0d1	-0.20685126
255	0x3dc3af7d	0.09554956
