TPN_models/safe_RGB/2000_D.ckpt (torch_old, 72924 bytes, 7 tensors)

main.0.weight f4 [82, 165]
00000000: 7432 15bf eb48 35bd 6a55 aabe 2c7e c3be
00000010: 586d ecbe ee1e 6bbe 014a f2bd c774 8dbc
00000020: 200d 1d3e 9864 ce3e fe2f 293f db5c b53e
00000030: aaba e43e ee2f 7a3d 4e9e 3fbf 1aa6 aabc
00000040: e2e9 173e 9fc7 72bd b70e f93c 6422 28be
00000050: b50c 3cbc ea56 b2bb d629 493d 9bbb 813d
00000060: 7f27 143c 6965 6dbe 0d94 3dbe 3e53 68bd
00000070: 3e67 69bd 330b 133d d5fb 36bd 914c 61be
00000080: 6c1a b23d 176f abbd f680 df3d 6274 e2bd
00000090: 8bef 03bd df84 a0bd fdb8 333d 7a34 25be
000000a0: 726e e93d b226 24bd d848 9abd ea2f ddbd
000000b0: c435 a63d 860a 8d3d 42b3 17be 0070 ee3c
000000c0: 61a5 aabd 6a6c 973d f898 2f3e 6a13 4e3e
000000d0: c5ce 353c ca07 a43d 6c20 213d d0ce cebd
000000e0: 05b3 153e 3e9f 20bc 90d9 a8bd b693 dc3d
000000f0: dbc9 0fbd 6da4 dbbc dfe3 06be 999b 4c3d
00000100: 5a87 443d 564f ae3d a775 ebbc c268 99bd
00000110: 160e 223d 5889 e6bd 9b86 bdbb 0446 033e
00000120: 06b1 d53e d131 323c cc43 683d 7b49 1cbe
00000130: 021e 553e ed2e c7bc 92ec 0fbe e4ea 34be
00000140: 7d79 ffbd e9cc 40bd 3572 0d3e e412 7abe
00000150: 2ba0 2cbe c26e 4a3b 0891 36be be87 c2bd
00000160: ade4 203d 507e 9dbd 8a3c 94be b9fb 95bc
00000170: f80f 3fbc e209 053a 6f11 afbc f47a 023a
00000180: 1f81 59bd b616 fdbe eefc 473e 7753 9cbe
00000190: ee1e e2bd fa58 d8bd 7dca 81be a800 c6bd
000001a0: 81e1 5a3e eb57 9cbd 4cc4 873e 4e8f adbd
000001b0: e409 1a3e d88e 35bd ef2a 16be abf2 bbbd
000001c0: 2e97 b13d 6ad4 ae3d ffa5 0ebe e5af babd
000001d0: 9113 3c3d 7215 183e a1d4 aebd a484 193e
000001e0: 8333 31be 890d de3c bc81 52bc c0d5 81bb
000001f0: 206b 3dbe 1474 c2bc 5c11 46be 119b 4c3d
00000200: 1804 e7bd 3e3d 253e 9319 9bbc bee8 513d
00000210: 587a 3abd 1496 ddbd 7532 893c 2ef1 6dbd
00000220: f17e 96bd 02d7 02be 299e 663d 93e8 32bd
00000230: 62a2 12be d397 b6be a2ba 92bd 8b23 ac3d
00000240: 4311 80bd cf01 22bc a918 77bd 5b13 643c
00000250: 0e30 19be 0729 55be 48cc 89be 999e 1ebe
00000260: 7f51 043e 53ce 3bbe 450a 25be 646e 193d
00000270: 9e1b 28be e08a 22be 27a0 34be e59c 65be
00000280: 7cb0 8bbe 171f 97bd 17d9 e8bd 06e7 ffbd
00000290: f6b5 42be 34ed f8bd d6ef 81be a6aa 73be
000002a0: c404 85be 9eff b0be 2fe8 75bd ff74 abbe
000002b0: 5607 ec3e 7982 f4bd 37b5 6b3d db3a 9a3e
000002c0: ab0c 663d ee47 513e 9e8d 2dbf 9581 95be
000002d0: 1041 f1bd bc56 93bd ba57 6a3e 5b37 06be
000002e0: e2ea 8bbd 0c9b cd3d 726b 8c3e 5bf1 793b
000002f0: af7d b23d 0396 883d c0b2 663d 79d2 13be
00000300: 62e3 d5bc 870c 7dbd 7b0b 363e 598d 8abd
00000310: 4420 58be 3eb6 99bd b042 adbd 5031 21be
00000320: 51d5 813c 24bf f43d 3f6f 193d 2db8 98be
00000330: 9aef 133d 5b3d c23d 9b1b d4bd b07e 9c3d
00000340: 873c 053e eb16 253d 3436 a8bd 268d 87bd
00000350: c6a2 56bd 5fb5 f53d b9d0 a1bd f0bb 56be
00000360: fc69 8bbb 821e 87bc 82f7 43be e415 78be
00000370: 7047 073e 46ba ac3d 99da d7bc c298 07bc
00000380: 4879 6ebd 3754 ee3c a79f 91be 0777 ebbe
00000390: f9a9 73be addd 11be c2ba 223e fd5c 0cbd
000003a0: d1d5 09be 846d 57be 099d 91bd c445 383d
000003b0: 7d72 cf3d 38da 9d3c 0687 3dbd 80e0 f5bc
000003c0: 8578 1abd 573a 12be 22a7 bdbc cc20 74bd
000003d0: 305d 363e 2820 553e a0ef 8e3b 499d 7cbc
000003e0: 908f 423d b151 8fbd 9b90 ab3c fea1 a4bd
000003f0: 0d42 f8bd ed2f 17be 6031 5bbe 05b4 bfbe
-0.5828011 -0.044258993 -0.3326829 -0.381822 -0.46177173 -0.22961017 -0.118305214 -0.017267598
0.15337038 0.40311122 0.66088855 0.35422406 0.44673663 0.061080866 -0.7485093 -0.020831157
0.14835313 -0.059272405 0.030402524 -0.16419369 -0.011477639 -0.00544249 0.049112163 0.06334611
0.00904262 -0.23183216 -0.18513508 -0.05672001 -0.056983225 0.035899352 -0.04467376 -0.22001864
0.08696446 -0.08370798 0.10913269 -0.110573545 -0.032210868 -0.07837843 0.04387759 -0.161333
0.11398019 -0.040075965 -0.07533425 -0.108001545 0.08115724 0.06886773 -0.14814475 0.02910614
-0.08332325 0.07393725 0.17148197 0.20124593 0.011096661 0.08009298 0.03933756 -0.1009804
0.14619072 -0.009803591 -0.08244622 0.10770361 -0.035104614 -0.026811803 -0.13172863 0.049953077
0.047980644 0.08511226 -0.028742624 -0.07490684 0.039564215 -0.11256665 -0.0057838685 0.12819678
0.4173662 0.010876135 0.05670528 -0.15262406 0.20812228 -0.024314368 -0.14055088 -0.17667729
-0.12474344 -0.047070418 0.13813098 -0.24421269 -0.16857974 0.003088877 -0.17828763 -0.09498547
0.039280582 -0.07690108 -0.28952438 -0.018308507 -0.011661522 0.000507502 -0.021370618 0.0004977428
-0.053101655 -0.4943139 0.19530079 -0.3053243 -0.110410556 -0.10563846 -0.253498 -0.09668094
0.21375085 -0.076339565 0.2651695 -0.08474599 0.15042835 -0.04432568 -0.14664815 -0.091771446
0.08671413 0.085366085 -0.1393051 -0.091155805 0.045917097 0.1485193 -0.085366495 0.14992005
-0.17304806 0.027106063 -0.012848314 -0.0039622486 -0.18497896 -0.023736991 -0.1934256 0.04995257
-0.11280078 0.16136643 -0.018933093 0.05124735 -0.045526832 -0.10819641 0.016747693 -0.058091335
-0.07348431 -0.12777331 0.056303177 -0.04367883 -0.14319757 -0.35662708 -0.07164504 0.08405217
-0.062532924 -0.0098881265 -0.060326252 0.01392063 -0.14959738 -0.20816432 -0.26913667 -0.15490188
0.12921713 -0.18340425 -0.16117199 0.037458792 -0.16416785 -0.15873289 -0.17639218 -0.22423132
-0.27283084 -0.07378977 -0.113695316 -0.12495236 -0.19014725 -0.12154618 -0.25378293 -0.23795566
-0.25980198 -0.3457002 -0.06003588 -0.33487698 0.46099347 -0.11938948 0.057545867 0.30123028
0.056164425 0.20437595 -0.67794216 -0.29200426 -0.11779988 -0.07194278 0.22885028 -0.13107054
-0.0683191 0.100393385 0.27425724 0.0038138244 0.087153785 0.066692375 0.056322813 -0.14435758
-0.026109401 -0.061779525 0.17777817 -0.06765241 -0.21106058 -0.07505463 -0.08459985 -0.15741467
0.015848788 0.1195052 0.03745961 -0.29828015 0.036117174 0.09484359 -0.10356828 0.07641351
0.1301137 0.04030506 -0.082134634 -0.06618719 -0.052401327 0.119974844 -0.07901139 -0.2097013
-0.0042545777 -0.01649404 -0.19137385 -0.242271 0.13210845 0.08433966 -0.026349353 -0.008276166
-0.05822113 0.029092891 -0.28442118 -0.45989248 -0.23795308 -0.14244719 0.15891555 -0.034268368
-0.1346047 -0.2103787 -0.0711003 0.04498841 0.10129259 0.019269094 -0.046271347 -0.030014277
-0.037712593 -0.14280067 -0.023150984 -0.05960159 0.17808986 0.20813048 0.0043620616 -0.015418359
0.047500193 -0.06998003 0.020942977 -0.0803871 -0.12121973 -0.14764376 -0.21405554 -0.37442032

main.0.bias f4 [82]
00000000: d03f 7cbf 4746 06bf 8698 8dbb e1e3 573f
00000010: c6de 51bf 97d8 843c 5dbc 7a3e b20c ba3e
00000020: 4930 3cbf 0d8d 383f f78e 2b3f 6365 333f
00000030: 77d9 68be f30a 513d 911c 69bf c8ae 33be
00000040: 7840 293f d27c 87be 0665 d6bf cbd6 6abf
00000050: 9f59 c63f 16ac 96bf fdc0 66be 0958 a73d
00000060: e53e 49bf e009 cd3e 0ffb 923e a971 a1bf
00000070: a003 903f 7019 0ebf 60fa 02be d1b7 38be
00000080: 8cf4 613f 201e 98be 304a 1bbd 57c7 7cbf
00000090: 4a4c 4a3f 59a2 fbbe 3402 7bbf 28e2 a13e
000000a0: fecd 263f a05a 3e3f 115b f03e 347c 1fbf
000000b0: 4783 79bd d770 89be 3aad abbe 194d 863f
000000c0: 3677 b2be 25a5 7a3f 3af1 eebd 779e 8f3e
000000d0: bd10 20be 1377 133f 5b3d a1be 4e24 eabe
000000e0: 7d80 4cbf 754b a93f 4663 4fbe 3122 023d
000000f0: 8193 a3bf e864 693d e47e 1dbf 3ca5 18bf
00000100: 08d8 3a3d a2fa c23e f25b 54bd cac0 adbd
00000110: 0d4a 84bd 0e73 c13e 73d8 1dbf 6f6e 523f
00000120: 1b6e 84be 32e8 81bf 442b e0bc 01d2 7ebf
00000130: 9d2e 8fbe a127 1ebf 425b 1dbf ef9c 013f
00000140: 66ab a93f 4d93 543f
-0.9853487 -0.52450985 -0.0043211607 0.8433209 -0.8198055 0.01621656 0.24485917 0.3633781
-0.7351118 0.72090226 0.6701502 0.7007658 -0.22739206 0.051035833 -0.91059214 -0.17547143
0.66113997 -0.26462418 -1.674958 -0.91734 1.54961 -1.1771266 -0.22534557 0.08171088
-0.78611594 0.40046597 0.28707168 -1.2612811 1.1251106 -0.55507565 -0.12790823 -0.1803887
0.88263774 -0.29710484 -0.037912548 -0.9874167 0.7902266 -0.491473 -0.98050237 0.31617856
0.6515807 0.7435703 0.46944478 -0.62298894 -0.06091621 -0.26843902 -0.335306 1.0492278
-0.34856576 0.9790824 -0.11667104 0.28050587 -0.15631385 0.5760357 -0.31492123 -0.45730823
-0.7988356 1.3226153 -0.20252714 0.03177089 -1.277939 0.056980997 -0.61521745 -0.5962713
0.04561618 0.38081843 -0.0518455 -0.08484037 -0.064594366 0.37783092 -0.616584 0.8219976
-0.25865254 -1.0148985 -0.02736438 -0.9953919 -0.2796525 -0.6177922 -0.61467373 0.50630087
1.3255432 0.83037263

main.2.weight f4 [41, 82]
00000000: cd64 8bbd 0a2d c13e f24d fc3e 8110 dabe
00000010: ddc8 3a3f a6ea 3ebe e361 ae3d 9f2d de3e
00000020: 33e5 343e 2268 2a3e fbe0 4e3e 484c ef3d
00000030: f734 213e 386d 423c bf9b f23d 1dcb 0dbe
00000040: 4b73 13bf bc46 373f 060a b4bd d4ee 46be
00000050: 7836 0bbf 6435 383c fe4a 0e3e ad0b 883e
00000060: 3dc5 883f 3499 fa3d 7d79 78bf a915 04bf
00000070: f102 a7bd f509 ae3f cb05 c33f 475a 3240
00000080: 06f1 50bf 9e66 873e ca4e 4a3f 811e 92be
00000090: f9a5 4dbe 99d8 283f efbc cb3e a3cc 99be
000000a0: 4174 0ebe f5e1 b63c 69eb 78bf 4f34 923e
000000b0: a025 ee3e 4109 76bd 2c1b 303f f490 c1bd
000000c0: 66fd a13d e9a5 41bf 7549 9e3e dc4e c63e
000000d0: 8541 203f bab3 abbd 71f7 4d3f 6153 723f
000000e0: e796 ab3e 6328 43be 9459 123e d8c2 68be
000000f0: e4d6 0c3e 4cac fa3e 4878 ac3e 9abb a3be
00000100: b622 bdbe 7973 2fbc 940f 3f3f b735 bdbe
00000110: 49c3 163f 3c22 2dbc fe0d a53e 7763 3c3d
00000120: aafb 1540 ea9a 243f 0a0c 1c40 cb64 23bd
00000130: f551 593d 54bb 013f ff8c 3c3f 5b8a b7bd
00000140: 5810 0cbf d0c7 9abe 2c5d 053f 3d70 8e3e
00000150: 7b8a 26bf 4bcf 023f 200e a7be 33a2 053e
00000160: ee89 643e 0cc1 e23e 023a e23d abc3 953c
00000170: e934 4abe 20fd b33e a1bf 923e 5f97 d63e
00000180: 49e6 b4bd 53f8 793e 5b0a afbd 63dd 0ebf
00000190: 6d38 963d 6b5e 98be 7416 ab3e b08d 753e
000001a0: 5fc4 94be db7d b93e 574d 273f 0c10 b43e
000001b0: e5b6 5dbe 658e 66be 81f1 c53e eeca 7fbe
000001c0: b53a 93bf 4276 4abe 62ef acbd cb49 6fbd
000001d0: ea94 cbbe 6f36 eb3e 0673 563d d9ec adbf
000001e0: 8f9d 153e d8b7 2e3e e54c 123d 0ffe 1dbe
000001f0: 948d 9c3d 57c7 073e a754 20bf 3fc7 c23d
00000200: c212 82be e5d7 d23e ed76 54bc 5817 6f3c
00000210: e9ab c3bd f680 5bbd 7c31 56bd cdd2 043f
00000220: e350 573f 2d16 f23c bcd1 36bf a0a5 acbd
00000230: 4cad f83e 858d d73e b872 c63d c358 dabd
00000240: f509 1c3f de90 b0bd d0ad b43e b2d8 603e
00000250: 6d54 a3bc e97b 9a3e 1e2a 18bd 8625 eebe
00000260: ac94 d53f c229 053f 23f6 33bf 2102 013f
00000270: 95e7 cdbe 5790 ca3e d1b2 ccbd 0b51 16be
00000280: 4863 663e ca86 933e bd71 493d 89eb 9a3e
00000290: ad57 31bf 4735 aabb f4b4 ec3d 6a1b fa3d
000002a0: 6a22 893e 4ecc 92bd 0bab fd3e ee32 943e
000002b0: d089 073f c3cf bd3d c9d0 dd3e 8b8a 8b3e
000002c0: 1c92 6b3e 92d6 babe fec2 93be 5bb3 f4be
000002d0: 0e85 cabd 875c 92be 9e6b 07be 3898 bbbe
000002e0: f865 5cbe 9127 273f 07e7 81be 8405 5c3e
000002f0: 771e 8fbf 2d52 cf3e d14a df3e 3010 ad3d
00000300: 4076 0bbe 43bf 7dbc 80cc 013e 87c1 efbe
00000310: 080d d73d 2ad5 583e 25a0 463f dc06 ed36
00000320: 9ca3 dc3d b822 d73d b363 e7bd a6f9 82be
00000330: feed 04bd 095b 7f3e 321e 29be 5529 9d3e
00000340: 2b30 19be f5a7 b0be 9e62 d03d 2896 cbbd
00000350: 7e83 bdbe 05e4 853e fefe 193f 325f 613e
00000360: 392a 533e 7357 d43e 395d 95be cb3c 2cbf
00000370: ed94 c1bf 431b 37be 4ba0 bcbe be27 e7bd
00000380: 4012 9abe 7033 973c 80a7 4d3c 2e12 9b3e
00000390: 27bf 9fbe c4fd 1a3e 7b62 d83d d1fe 19be
000003a0: 7e2d 573d f134 a4bd a507 eabe d9d4 203e
000003b0: 05c0 b1be 88e5 8fbd 546c 75bf fef0 753e
000003c0: 3fca 753d 03ae 9f3e 06d8 08bf 5427 91be
000003d0: b459 a0be 3d79 983e 031d ccbe 8008 05c0
000003e0: afac a3bf 5ced bf3e 63e8 40bf d217 f4be
000003f0: ad3a 443f 0ee9 343e 064a 77bf b619 b5bd
-0.068063356 0.37729675 0.49278218 -0.42590716 0.72962743 -0.18644199 0.08514764 0.4339418
0.17665558 0.16641286 0.2020301 0.11684471 0.1574286 0.01186686 0.118461125 -0.13847013
-0.575978 0.7159231 -0.08790974 -0.19427043 -0.5437999 0.011243198 0.13895795 0.26571408
1.0685192 0.122362524 -0.97060376 -0.5159555 -0.08154858 1.3596789 1.5236143 2.78676
-0.8161777 0.26445478 0.7902647 -0.28538898 -0.20082845 0.659555 0.39792582 -0.30038938
-0.13911535 0.022324542 -0.9723421 0.28555533 0.4651308 -0.06006742 0.6879146 -0.09451476
0.0790966 -0.75643784 0.30915418 0.3873204 0.62599975 -0.083838895 0.8045569 0.94658476
0.33513567 -0.19058375 0.14291984 -0.22730577 0.1375385 0.48959577 0.33685517 -0.31979066
-0.36940545 -0.010708683 0.74633145 -0.36955044 0.5889173 -0.010567244 0.32237238 0.045993295
2.3434854 0.6429888 2.4382348 -0.039891046 0.053056676 0.50676465 0.7365264 -0.08961936
-0.5471244 -0.3023057 0.52095294 0.27820006 -0.65055054 0.51097554 -0.32627964 0.13050155
0.22318241 0.44287908 0.1104622 0.018281778 -0.19746746 0.35154057 0.28661826 0.41912362
-0.08832986 0.24411134 -0.08546897 -0.5580656 0.07334981 -0.29759535 0.33415568 0.2397983
-0.2905607 0.36228833 0.65352386 0.35168493 -0.216518 -0.22515257 0.38660815 -0.24979755
-1.1502291 -0.19771674 -0.08444096 -0.058419984 -0.3976205 0.45939967 0.05235579 -1.3587905
0.14610885 0.17062318 0.035717864 -0.15428947 0.076441914 0.13259636 -0.6262917 0.095106594
-0.25404936 0.4118034 -0.012967807 0.014592968 -0.09554274 -0.053589784 -0.052293286 0.51884156
0.841078 0.02955159 -0.7141378 -0.08430028 0.48569715 0.42100158 0.096898496 -0.10661461
0.60952693 -0.08621381 0.35288858 0.21957663 -0.019937718 0.3017266 -0.03714954 -0.46513003
1.6685996 0.5201684 -0.7029745 0.50393873 -0.40215746 0.39563248 -0.09995044 -0.14679353
0.2249881 0.28813773 0.049180735 0.30257824 -0.6927441 -0.0051943394 0.115579516 0.1221226
0.26784068 -0.07167874 0.49544558 0.28945106 0.5294466 0.09268143 0.43323353 0.27254137
0.23004955 -0.3649183 -0.28859705 -0.47793087 -0.098886594 -0.28586218 -0.13224646 -0.3663957
-0.21523273 0.6529475 -0.25371572 0.21486479 -1.1181172 0.40492383 0.43611768 0.08450353
-0.13619328 -0.015487495 0.12675667 -0.46827337 0.105005324 0.21175066 0.7758811 7.063949e-06
0.107733935 0.10504669 -0.11298313 -0.25581092 -0.03245353 0.24937071 -0.16515425 0.30695596
-0.14959781 -0.3450314 0.1017506 -0.099407494 -0.37014383 0.26150528 0.6015471 0.2200897
0.20621575 0.41472968 -0.29172686 -0.6728026 -1.5123574 -0.17881493 -0.36841044 -0.11286877
-0.3009205 0.018457144 0.012552142 0.30287308 -0.31200525 0.15135866 0.10565659 -0.15038611
0.05253362 -0.0801791 -0.45708957 0.15706195 -0.34716812 -0.070262015 -0.9586842 0.24017712
0.06000733 0.31187448 -0.53454626 -0.28350317 -0.31318438 0.29779997 -0.39865884 -2.0786438
-1.2787074 0.37485778 -0.75354594 -0.47674423 0.7665203 0.17667028 -0.96597326 -0.088427946

main.2.bias f4 [41]
00000000: e290 82bf 7a2b 43bf 4eeb 203f b814 bd3e
00000010: ee4b 36bf 7b64 d6bf 3719 f03e 45a1 d0bf
00000020: 57e2 0540 f815 adbf ee32 ffbf 15f0 ebbf
00000030: dfd8 eebf 5205 af3f b761 8bbf 2a02 4f3f
00000040: 640d 7cbe 0f90 163e ae24 fdbf d0e9 d4bf
00000050: d875 16c0 ac39 f1bf 09e2 80be 6a97 10bf
00000060: 5a29 2cbe eb19 7b3f 2596 e7bf b59d b43f
00000070: 0919 0fbf ba18 03c0 fc73 d8bf 991f 7dbf
00000080: dcc3 713f 5db9 013f 95c8 5a3f 8f96 c33e
00000090: 2178 f0bf 1e7f 6fbf 22f6 b5bf 767f d8bd
000000a0: 0a6a 3cbf
-1.0200465 -0.76238215 0.62859046 0.3692987 -0.7120961 -1.6749414 0.46894237 -1.6299216
2.0919397 -1.3522329 -1.9937418 -1.8432642 -1.8659934 1.3673499 -1.0889195 0.8086268
-0.24614483 0.14703391 -1.9776819 -1.6633854 -2.3509426 -1.8845725 -0.2517245 -0.5648104
-0.1681265 0.9808642 -1.8092695 1.4110628 -0.55897576 -2.0483842 -1.6910396 -0.9887634
0.9443948 0.50673467 0.85462314 0.38200805 -1.878666 -0.9355334 -1.4215739 -0.10571186
-0.735993

main.4.weight f4 [20, 41]
00000000: 9a60 823f ca11 58be 68ef 793e 0dd3 8dbd
00000010: 1054 71bf bfb0 3c3f 1445 863f c8ae 683f
00000020: 2caf 243f bb1a 743f 57f5 443f 149a 323f
00000030: 9147 163e 71be 643e f40f 983f 24cc 313f
00000040: c630 5ebd 79f5 213f 4ba0 053f d00a 6abc
00000050: 55e8 323f f9ac 46bf 280f 953f ce63 6b3f
00000060: 494a 123f e384 9bbf 2582 aebd 7d4f c2be
00000070: 7877 733f 2763 5e3f 49e9 743d 0f95 763f
00000080: 17de 183f 2b02 ce3c c738 833f b359 753e
00000090: 82d3 2f3f a933 0c3f 05d2 413f 5fbc e0bd
000000a0: 60eb bbbe 0555 233f 1ea9 bf3c 536d 2f3f
000000b0: 2283 063e b71b a5bc 7b80 23bf 9156 793f
000000c0: 7439 0ebe d164 4e3f 39a7 ffbd 5a39 e0be
000000d0: 5d9a 9dbe 232c 90be af40 763e 85b0 a4be
000000e0: 3fb9 0e3f a938 5d3c 6abc 2cbe 631a eebe
000000f0: 8ac1 7f3d ae54 ebbd 81fd 51bd efdb 02be
00000100: d002 663e c5ec c73e 305c 37bd 3256 2cbf
00000110: dd9a 3f3f 86ef e1be 9ed1 66be d02c 223d
00000120: 1c2e a5be b535 8f3e 3266 11be 6793 463f
00000130: 357a f73e 1497 2f3e 759f 0d3e adc9 58bf
00000140: 8f16 8bbe 5d20 ee3e e267 5abf b0d3 0d3e
00000150: 4ce1 cd3e 38d7 0bbc a17a 7bbe 7b28 52bf
00000160: f6c7 0f3f 536b 17be edbf 213f ea4d 12bf
00000170: 175c d5bc 6097 d0be dccd 79bd a22f 963e
00000180: 65a2 65bf 7666 283f 3bf2 a43d 5b37 aa3e
00000190: d0c1 3ebf d200 833c 4124 41be 822a 09bf
000001a0: 4f9d 623e 4a3b 6dbd 94c9 a9bd 2ace 433e
000001b0: 1e30 94be b115 983e 4833 4ebf 8159 e3bd
000001c0: 2d40 efbd c1e1 4dbf 0c4f 16be ca91 bebd
000001d0: 0e84 1b3f 2794 e33e 9c2f 8fbc ca1c 73be
000001e0: bc1e a7be c051 33be ae6d 8abd d994 923e
000001f0: b40c 13be 3691 4e3e 0c95 453e d1a4 98be
00000200: 43fc 953e 5acc 573f 045d d1be a009 b33e
00000210: 5bc9 24bd 0225 f3be 9058 38bf 4fa4 62bd
00000220: a06b a43e f78e d53d 59f4 a43e 2411 dbbe
00000230: 348f b13e 2906 923b d62b 6ebd 24c0 4bbf
00000240: d495 24be c0fd e63d c6f3 4e3e d724 1b3f
00000250: 6943 ba3d 78d3 8bbe c2d0 5f3e 1522 6abe
00000260: 8e74 1cbd 615e 9e3e 9efe 8c3e e5f1 ba3e
00000270: aca6 1dbe 310c f83e 8482 b63e 2987 dbbe
00000280: de7b 0dbd 97f6 f2be 0eff fc3d a016 733e
00000290: e929 ea3e 868a a63d 21f1 8bbf 3de1 00bf
000002a0: ac89 b93d c3e1 883e 062b 3ebe 0be1 8d3f
000002b0: 25cc 5a3f 02da 503f 7187 0e3e 97a4 293f
000002c0: 5340 3d3f 164d f0be d3be 3b3f c797 183f
000002d0: 06ca 163f 8223 03bf 596b 1e3f 25a3 e93e
000002e0: faf8 603f cd3f 443f f790 5abe 1030 1b3f
000002f0: 3e33 d7bd a75b bd3e aba6 fbbe 663e 6ebf
00000300: 71a9 ba3d 1ae8 3a3f ebea 1e3f d1b0 003f
00000310: fdc0 643e 0b3d b8be e152 34bf 4711 80bf
00000320: 2834 7c3e 9934 bcbd efdd 1e3f 7246 74be
00000330: 8764 af3e ae68 a3bf 4cce a6be 407c 97be
00000340: 2975 1a3f 1b57 b83e df89 38bf b007 793f
00000350: 2e7e f83d 607b a8bc a9fc 9abe 5312 17bf
00000360: c953 6dbe f7a5 bbbe dcf3 65be 6df1 0fbf
00000370: 6cb0 843e 9593 08bf 30ee 91bd 9c16 24bf
00000380: da4c dabe b6af 2abf 7670 d73d 065e 5cbf
00000390: 4e02 e53e 4e5e 22bf 4c7f 1dbe f85d cdbf
000003a0: e678 52bc b7c3 583d bff4 52bf 05e8 5fbe
000003b0: 91a6 2fbd 1a8d e33e de45 003e 90d8 70be
000003c0: becb 353f 9351 dd3e 371a 1abf c374 0dbf
000003d0: 4b9e 99be ae25 97be f655 89bf 3cd4 b6bd
000003e0: e64a 38bf 8b8f 113d b987 4b3d 4fd7 c4be
000003f0: 651d d63d b1c2 b5bb 6644 163e a4e2 fd3b
1.018573 -0.21100536 0.24407732 -0.0692502 -0.94268894 0.73707193 1.0489831 0.90891695
0.6432979 0.9535329 0.7693686 0.69766355 0.14675738 0.22338273 1.1879869 0.6945212
-0.054245733 0.63265187 0.5219771 -0.014284804 0.6988576 -0.77607685 1.164525 0.91949165
0.571446 -1.2149929 -0.08520917 -0.3795127 0.9510417 0.86870044 0.05979279 0.96321195
0.5971388 0.025147518 1.0251702 0.23959999 0.6868211 0.5476633 0.7571109 -0.10973429
-0.36703014 0.63801605 0.023396071 0.6852619 0.1313596 -0.020154817 -0.6386792 0.97397715
-0.13889104 0.80622584 -0.12483067 -0.43793756 -0.30781832 -0.28158674 0.24048112 -0.32165924
0.55751413 0.013502278 -0.1686875 -0.46504506 0.062440433 -0.11490761 -0.05126715 -0.1277921
0.2246201 0.39047828 -0.04476565 -0.67319024 0.7484568 -0.44128054 -0.225409 0.039593518
-0.3226174 0.27970663 -0.1419914 0.7756867 0.48335424 0.17147475 0.1383036 -0.8468273
-0.27165648 0.46509066 -0.8531476 0.13850284 0.4021095 -0.008535199 -0.24558498 -0.8209302
0.5616449 -0.14787035 0.6318348 -0.5715014 -0.026044888 -0.4074049 -0.06098734 0.29333216
-0.8970092 0.65781343 0.08054014 0.33245358 -0.74514484 0.015991602 -0.18861486 -0.53580487
0.22130321 -0.05791787 -0.08290401 0.19121614 -0.2894296 0.2970405 -0.80547 -0.11101056
-0.116821624 -0.804226 -0.14678591 -0.09305151 0.60748374 0.4444897 -0.017478757 -0.23741451
-0.32640636 -0.17511654 -0.06759201 0.28629187 -0.14360315 0.20172581 0.19295138 -0.29813245
0.29294023 0.8429619 -0.40891278 0.3496828 -0.04023109 -0.47489172 -0.72010136 -0.055332478
0.3211336 0.10427659 0.32217672 -0.42786515 0.34679568 0.0044563008 -0.058147274 -0.7959006
-0.1607278 0.11278868 0.2021018 0.6060309 0.09094889 -0.27309775 0.21856979 -0.22864564
-0.038197093 0.3093138 0.27538007 0.36512676 -0.15395612 0.484468 0.3564645 -0.42876557
-0.034541957 -0.47453758 0.12353335 0.237391 0.457351 0.0813189 -1.0932962 -0.50343686
0.09059462 0.26734743 -0.185711 1.1084303 0.8546775 0.81582654 0.13918854 0.6626677
0.73926276 -0.46933812 0.7333805 0.59606594 0.58902013 -0.51226056 0.6188255 0.45632282
0.8787991 0.7665985 -0.21344362 0.6062021 -0.105078205 0.36983988 -0.49150595 -0.9306396
0.0911435 0.7301041 0.62077206 0.502698 0.22339244 -0.35984072 -0.70438963 -1.0005273
0.24629271 -0.0918972 0.62057394 -0.23854998 0.34256384 -1.2766321 -0.32579267 -0.29586983
0.6033502 0.36003956 -0.72085375 0.97277355 0.12133442 -0.020566642 -0.3027089 -0.59012336
-0.23176493 -0.3665006 -0.22456306 -0.5622776 0.2591585 -0.5335019 -0.07125509 -0.64097
-0.42636758 -0.66674364 0.10519497 -0.8608097 0.4472832 -0.6342515 -0.15380591 -1.6044302
-0.012846207 0.052921023 -0.824047 -0.21865852 -0.04288346 0.4444359 0.12526652 -0.23520112
0.7101401 0.432263 -0.6019625 -0.5525629 -0.3000358 -0.29520935 -1.0729358 -0.08927199
-0.71989286 0.035537284 0.049689982 -0.38445517 0.10454825 -0.0055468907 0.1467453 0.007747965

main.4.bias f4 [20]
00000000: 2dcd 26c0 96a2 ab3f a45c 1240 057f ad3f
00000010: 2273 8abf 28c5 88be 75f5 64bf f7df ab3f
00000020: aefd 8e3f d8f8 c93f 23d5 28c0 7027 95bf
00000030: e932 0140 0809 c1bf 8cee 9dbf 1a92 e8bf
00000040: 53d2 0840 a145 b73f b5eb d93f cb8c ffbf
-2.606273 1.3408992 2.2869043 1.3554388 -1.0816386 -0.26712918 -0.8943704 1.3427724
1.1171167 1.5779066 -2.6380088 -1.165266 2.0187323 -1.5080881 -1.2338424 -1.8169587
2.1378372 1.4318124 1.7025057 -1.9964842

main.6.weight f4 [1, 20]
00000000: 257d 5b3c b61a 0ebf 1d51 adbe 20b4 9abe
00000010: b1f7 9b3d 7fac b0be a587 b5be 233a 67be
00000020: 8ba4 cabe 7545 60be 27e4 223d 80d3 2bbd
00000030: 1fc7 bfbe 9d5d 65bc 6b31 333d f1ff ab3c
00000040: 2c6e 07bf 7d7f 0bbf 7212 5bbe 133b 063d
0.013396536 -0.5550951 -0.33850947 -0.3021555 0.07615603 -0.34506604 -0.3545505 -0.22580771
-0.3957866 -0.21901496 0.039768364 -0.04194975 -0.37456605 -0.01399937 0.0437483 0.020996066
-0.52902484 -0.54491407 -0.21393755 0.03277118
